Assignment 2/best_model.ckpt (torch, 25322 bytes, 2 tensors)

linear.weight f4 [15, 396]
000000 52 00 60 bd 6c 5a 04 3c b7 37 a2 3c 36 32 7d bc
       -0.054687805 0.008078199 0.019801958 -0.015453866
000010 a0 cf 51 3d 80 4d 0c 3d 2e 75 ad 3d e7 99 95 bd
       0.051223397 0.034253597 0.08469616 -0.07304745
000020 97 9d 99 3d 1a 74 66 bd bc 64 87 3d ea c0 2f 3c
       0.07500761 -0.056263067 0.066110104 0.010727147
000030 ee 97 ba bd 2a 89 45 bc f7 ee 73 bc 27 2b 07 3d
       -0.091110095 -0.012056628 -0.014888517 0.033000138
000040 0a 18 84 bd 20 70 ed 3c f0 f4 c1 3d df 91 8c 3d
       -0.064498976 0.02898413 0.09470546 0.0686376
000050 e4 fe c0 bd f5 98 83 bd 94 da 82 3d e7 e6 84 ba
       -0.094236165 -0.064256586 0.06389347 -0.0010139615
000060 d4 ea 1c 3d 42 7b 88 3e 69 8d b1 3d 43 4f 72 3d
       0.038309887 0.26656538 0.0866955 0.05915762
000070 b3 95 88 bd 76 34 95 bd 4f 3b d7 bd 8e 08 0d 3d
       -0.06669178 -0.07285397 -0.10509359 0.034431987
000080 76 fc d0 3c ae 14 82 3c 0a 61 c4 3c 30 e3 c4 3c
       0.025511008 0.015879001 0.023972053 0.024034113
000090 5b 66 1d 3d b7 13 1b bd 17 f1 0a 3e 7a 12 32 3d
       0.038427692 -0.0378606 0.13568531 0.043474652
0000a0 3e 87 0d 3e 7d 6b e3 3c cb b0 6f 3d a8 b6 5a bd
       0.13821122 0.027761215 0.058518212 -0.05339685
0000b0 d4 c6 a3 bd 3c 8f 9d bc de 15 ed 3c 92 4d 83 ba
       -0.07996908 -0.019233339 0.028941091 -0.0010017625
0000c0 88 62 33 ba 98 fe c2 3c e2 d3 21 3c df e4 a1 bd
       -0.00068429904 0.02380304 0.009877177 -0.07904982
0000d0 cb 0d 8f 3d a6 c8 11 bd 98 a2 b7 bc 71 e8 21 3d
       0.06985053 -0.035591744 -0.022416398 0.039528314
0000e0 c8 6f 37 3d cb 06 23 3c ab b1 3a 3c 8e c5 13 be
       0.044784337 0.00995035 0.011394898 -0.1443083
0000f0 90 b9 d4 be 39 1e 51 3d 74 b3 f0 3b 75 b5 bd bd
       -0.41547823 0.051054213 0.007345611 -0.09263126
000100 c2 ca f7 bb 2c 92 23 bd 76 82 9b bc 2d da 32 bd
       -0.0075620124 -0.039934322 -0.018983107 -0.0436651
000110 57 d2 1e 3c 45 f9 45 3d cc 76 36 bc f8 f3 48 bc
       0.009693704 0.048333425 -0.011136722 -0.012265198
000120 cb f5 a7 bc 87 15 4f 3d ab a6 78 bd 88 6c 99 bc
       -0.020502945 0.05055764 -0.060705822 -0.01872851
000130 de 80 2f 3d e8 4f 02 3d 83 e3 be 3c c6 5c a8 3c
       0.042847507 0.031814486 0.023301845 0.02055205
000140 1a a9 93 bc 7a 11 9b 3c fe 73 b9 bc 0b 60 8b 3d
       -0.01802497 0.018929232 -0.022638317 0.06805428
000150 8a f8 06 bd 2c b5 0d b9 22 1d a2 ba f9 f5 07 3c
       -0.03295187 -0.000135143 -0.0012368301 0.008298391
000160 ae 69 00 3d f7 34 df bc e4 c3 93 bd b7 57 d2 3c
       0.031350784 -0.027246935 -0.072150975 0.025676591
000170 d5 ae 3f bd 82 41 bd bb bb 2d 1a 3d 2e b8 b1 bc
       -0.046797592 -0.0057756314 0.03764127 -0.021694269
000180 a6 7d ed 3c ad a9 a9 3c a8 bd a7 3b c3 64 f2 bd
       0.028990578 0.02071079 0.0051190443 -0.11835625
000190 c9 a2 4d 3d d3 3c c2 3c aa 4f 9a 3c 58 e1 07 3d
       0.050204072 0.023710644 0.018836815 0.03317389
0001a0 7b f4 86 bd 0a 3d 17 bd fb e3 8f bc 7d 50 43 3d
       -0.065896 -0.036923446 -0.017564764 0.04768418
0001b0 aa 17 59 3c 0c ce d0 3b 4d 5b d3 3c 37 1f d2 bc
       0.013250271 0.006372219 0.025800372 -0.02564965
0001c0 a4 8e 59 bc 44 85 79 bd 86 43 1f 3d c6 93 b9 3c
       -0.013278637 -0.060918108 0.038882755 0.022653472
0001d0 f9 fa f3 3b 7e 65 33 3c 44 b5 b4 3c ae 0d 1f 3d
       0.0074456898 0.010949491 0.02205909 0.038831405
0001e0 1d 98 c4 ba 6c 33 1f 3c 5a f9 b4 3c 1f 03 94 bc
       -0.0014998947 0.00971685 0.022091556 -0.018067895
0001f0 0b 74 4a 3c 42 5d 92 3c 12 15 b9 3c 97 b6 78 bc
       0.012356768 0.017866734 0.022593055 -0.015180252
000200 b5 32 3f 3d dc 78 8b bd df 2a 8c 3c c7 a8 69 3c
       0.046679217 -0.068101615 0.017110286 0.014261431
000210 0d ff 9c 3c be 2a c2 bc 1f a6 1a 3d 26 cc fd 39
       0.019164586 -0.023702022 0.03775608 0.00048408023
000220 76 f5 4f 3c 59 37 3f bd 81 7d 1a bb 12 5c 53 bd
       0.0126928 -0.046683643 -0.0023573341 -0.051601477
000230 4c 2d ad 3a 36 0a 64 3d 82 dd 66 bc 24 0b d5 bb
       0.0013212352 0.0556738 -0.0140908975 -0.006501572
000240 b5 43 b2 3c 54 be a5 3c ac 69 eb 3c 6d 91 69 bc
       0.0217608 0.020232357 0.028736912 -0.014255864
000250 bf ff e1 3c 3e d8 3f 3d 3a 0d 2e 3c 9e a9 8c bc
       0.02758777 0.046837084 0.010623271 -0.017170724
000260 45 41 df bc 4b 4d 11 bd c6 df 22 3c 8f 41 22 bc
       -0.027252803 -0.035474103 0.009941047 -0.009903326
000270 52 56 42 bc b0 c7 5f 3c f3 2b 89 bc 18 de 2a bb
       -0.011861401 0.013658449 -0.01674459 -0.002607232
000280 c5 13 78 bc b5 c7 da bc 78 7c b5 bc 78 e8 0e bd
       -0.015141432 -0.026706556 -0.022154078 -0.03488967
000290 a8 3c 18 3c b4 34 c4 3c c1 00 24 bd e8 55 27 3b
       0.009291805 0.023950912 -0.04003978 0.0025533382
0002a0 f8 65 c9 3a 22 42 c5 3c db d5 8d bc 3f 8b f6 bc
       0.0015365472 0.024079386 -0.017313888 -0.030095695
0002b0 a5 ca 42 3b 6b df 84 ba 0f 3b 54 3b 75 9b 5f 3d
       0.0029722836 -0.0010137385 0.0032383834 0.054591615
0002c0 6d 06 48 3d 34 2f a1 3b f3 75 19 bc 74 b4 7a 3c
       0.048834253 0.004918957 -0.0093665 0.015301812
0002d0 fd 89 a7 bb 73 72 aa 3a e1 57 d4 3b 7c f5 88 3c
       -0.005112885 0.0013004079 0.0064802025 0.016718619
0002e0 35 85 42 bc 65 38 4f bc 26 e9 cf b9 cc 04 1f bd
       -0.011872579 -0.012647723 -0.00039655826 -0.038822934
0002f0 85 0f 0d bd 07 55 20 bd 3b 83 58 3d dd f7 37 3d
       -0.03443863 -0.03914359 0.052859526 0.044914115
000300 25 ea ec 3c b4 55 b5 3d da 1d 26 bd d1 ce 77 3d
       0.028920243 0.08854237 -0.040555812 0.06049997
000310 4b ff 52 3c 61 31 42 bc 3c 54 02 3d 15 83 f0 3c
       0.012878249 -0.011852593 0.031818613 0.02935938
000320 cc 37 8e bb 27 e5 b3 ba 7a 3d 97 bc 7a 55 9a 3b
       -0.0043401476 -0.0013724909 -0.018461931 0.0047098966
000330 a9 b6 11 bd 10 ad f8 3c 0b 7a 8b 3d e4 8a bc bc
       -0.03557459 0.03035596 0.06810387 -0.023015447
000340 a8 f2 ae 3c a2 81 02 bd a4 27 04 3c 3f 32 81 3c
       0.021355942 -0.03186191 0.008066092 0.01577103
000350 29 41 d1 3c 08 87 28 be d5 57 99 bc 81 bb 0d bc
       0.025543766 -0.1645776 -0.01871864 -0.008650661
000360 07 cd 38 3c 35 4e a8 3d 7a 45 58 3d 0c b0 9a 3d
       0.011279351 0.08218042 0.052800633 0.075531095
000370 93 04 4b bd de 34 45 bd 76 9e 1c 3d ac 95 a7 b8
       -0.04956491 -0.04814612 0.038237058 -7.991059e-05
000380 40 9f 08 bd 2a 8c 02 3c 85 41 0e bd b0 61 28 3d
       -0.033354998 0.007967988 -0.034730453 0.041108787
000390 33 01 75 bd 5f 72 6d 3c e8 8a 45 3c 75 bd 22 3b
       -0.059815597 0.0144926 0.012057044 0.0024832163
0003a0 85 24 85 bc 28 37 e2 bc 34 2f 83 3d 65 6b 84 3d
       -0.016252765 -0.027614191 0.06405488 0.064657964
0003b0 1e a3 c9 3c 8b 1c 33 be 4b e9 a0 3c 55 d9 5f 3c
       0.024613913 -0.17491357 0.019642493 0.013662656
0003c0 05 f2 56 bd 78 b4 4f bc 9d 9e fe bd 81 cd 23 bd
       -0.0524769 -0.012677304 -0.12432597 -0.039990906
0003d0 ff f8 7b bd d3 9c 70 3d 57 ea 90 bb a8 0f 45 3d
       -0.061516758 0.05874331 -0.0044224667 0.048110634
0003e0 23 8b 9f bd 43 eb 87 bd 7f 13 1e bd 57 d0 4a 3d
       -0.0779021 -0.066366695 -0.03859281 0.049515095
0003f0 ba 2a 6f 3c 27 73 e0 3c d6 d6 f6 3a ea b6 57 bc
       0.014597589 0.027398659 0.0018832337 -0.013166169

linear.bias f4 [15]
000000 82 ad 76 3f f7 af 85 3e 63 51 18 3e c8 da 00 3d
       0.963585 0.26110813 0.14874797 0.031458646
000010 bc f7 5c bc 9d 6c 41 bd c8 e8 ad bd d7 79 d9 bd
       -0.013486799 -0.047222722 -0.08491665 -0.10618942
000020 cf 05 2b be e0 a8 32 be 36 e3 6d bd d6 e3 1c be
       -0.16701435 -0.17447233 -0.058078013 -0.15321288
000030 73 fa 23 be 00 eb 54 be ec cf 6d be
       -0.16013508 -0.2079277 -0.23223847
