Assignment 2/best_logistic_regression_model.pth (torch, 26466 bytes, 2 tensors)

linear.weight f4 [15, 411]
-0.027316825 0.041767005 0.06296734 -0.011727173 0.05547891 0.030831644 0.10512504 -0.06394791
0.056962084 -0.065694265 0.12288414 0.023225274 -0.06495309 -0.00066596654 0.020556824 0.053160626
-0.06917976 0.023735037 0.06690793 0.04919223 -0.14386258 -0.10697005 0.07020406 0.0029514616
0.036277197 0.23281369 0.047228042 0.030420655 -0.085131824 -0.099851996 -0.09966848 0.11814215
0.022552252 0.02480393 0.049846333 0.015644688 0.025646739 -0.008685204 0.11385366 0.07650288
0.09226624 0.048955463 0.058888182 -0.09192109 -0.028102517 -0.02035723 0.017403604 0.014206641
0.019559853 0.026539585 0.062365703 -0.09034276 0.067958646 -0.010837039 -0.021332476 0.00986361
0.059384495 0.0011410589 0.03876463 -0.17311977 -0.42692387 0.04646454 -0.005261469 -0.1018284
0.026273223 -0.01919799 0.0248892 -0.02812196 0.033370063 0.046239875 -0.022756726 -0.010994961
-0.012141859 0.024280332 -0.027950725 0.00714697 0.026448276 0.052470457 -0.019077156 -0.033769824
0.023667442 -0.044939127 -0.025886294 0.037538037 -0.083030865 -0.034043383 -0.01598335 0.003958892
0.027603235 0.012280623 -0.04032092 0.050465558 -0.00033339858 -0.006803406 0.06076984 -0.0050011226
0.04481325 0.051464714 0.015314904 -0.10686759 0.051658805 0.0059850905 0.04661959 0.050815713
-0.008763192 -0.05952594 -0.01716456 0.049909446 -0.0065855123 -0.01726098 0.06292418 -0.03404662
-0.085280284 -0.012716917 0.036754165 0.05025324 0.03014757 0.05702146 0.0074191247 0.07770558
-0.011013248 0.0015258506 0.0033559075 -0.016186878 0.01597743 0.016769111 0.03683534 -0.017544052
0.073425464 -0.06553793 0.013900721 0.03076463 0.02166963 -0.037531555 0.01631293 0.038488735
0.011289409 -0.050829813 0.04224746 -0.10811706 -0.0094292015 0.061211586 -0.010993718 -0.05222645
0.021852292 0.05802498 0.044179942 -0.015686309 0.040843476 0.03155301 0.028058054 -0.015324484
-0.027310757 -0.054041542 0.06566076 -0.025710503 0.030920563 0.009024688 -0.060546882 0.0029141107
-0.00825255 0.014874906 -0.03621725 -0.018910758 0.046275977 0.037547283 -0.016475737 -0.008464559
0.0054058265 0.07284718 -0.015451017 -0.05388997 0.021222398 -0.016348453 0.005606069 0.031455804
0.04819586 0.012532074 -0.02464227 0.016156413 -0.013495022 0.017539965 0.035838377 0.014983522
-0.013840436 0.007510249 0.013435269 -0.020228665 -0.017213127 0.0058346204 0.04069026 0.05634457
0.031545565 0.084439166 -0.036008757 0.054929867 -0.009272563 -0.020901335 0.023079552 -0.021283338
-0.01205615 0.030539673 -0.019593036 -0.01414857 -0.033137728 0.03848382 0.07717419 0.01672931
0.029604439 -0.074030235 0.028806316 0.0007726853 0.054999072 -0.12756526 0.03025052 -0.012402987
0.017794505 0.072304256 0.02500497 0.056293614 -0.044032693 -0.018885802 -0.0018911414 0.016907591
-0.018520359 0.027504025 -0.050537787 0.03626088 -0.0696916 0.014498335 -0.0024752605 -0.008856549
-0.015584993 -0.0082693705 0.04363989 0.004754063 0.036980134 -0.2164906 0.0624731 0.0346978
-0.09116666 0.009136907 -0.14043282 -0.043815132 -0.07456142 0.096885495 -0.04578172 0.0053436733
-0.04402258 -0.05266936 -0.060415708 0.03193234 -0.03170691 0.023152668 -0.015559141 0.004049173
00000000: 89c7 dfbc e113 2b3d 05f5 803d 5423 40bc
00000010: db3d 633d a592 fc3c cc4b d73d 1ff7 82bd
00000020: 1351 693d b78a 86bd aeaa fb3d ee42 be3c
00000030: 2006 85bd 4294 2eba c966 a83c f5be 593d
00000040: 1eae 8dbd fb6f c23c 0607 893d cb7d 493d
00000050: b650 13be 1d13 dbbd 25c7 8f3d 4f6d 413b
00000060: 6697 143d b666 6e3e 3172 413d bd34 f93c
00000070: 9859 aebd 347f ccbd fd1e ccbd 83f4 f13d
00000080: 80bf b83c 9d31 cb3c ab2b 4c3d 4a29 803c
00000090: 1c19 d23c 634c 0ebc 1c2c e93d 8bad 9c3d
000000a0: 15f6 bc3d 8685 483d bc34 713d 2041 bcbd
000000b0: 4037 e6bc 35c4 a6bc 0192 8e3c f9c2 683c
000000c0: fc3b a03c 8b69 d93c 2e73 7f3d a005 b9bd
000000d0: e72d 8b3d d68d 31bc 72c1 aebc fb9a 213c
000000e0: 283d 733d 958f 953a a9c7 1e3d 4f46 31be
000000f0: c495 dabe 9a51 3e3d 6768 acbb 688b d0bd
00000100: f13a d73c 1a45 9dbc 70e4 cb3c 0660 e6bc
00000110: 0caf 083d 0666 3d3d 506c babc 3524 34bc
00000120: a6ee 46bc 8ce7 c63c ebf8 e4bc 2131 ea3b
00000130: 0eaa d83c 43eb 563d b247 9cbc 3a52 0abd
00000140: 39e2 c13c 1712 38bd 7e0f d4bc 7cc1 193d
00000150: 160c aabd 1371 0bbd 84ef 82bc 98b9 813b
00000160: 2e20 e23c ab34 493c 8d27 25bd f9b4 4e3d
00000170: 00cc aeb9 1bef debb cce9 783d 75e0 a3bb
00000180: 198e 373d aacc 523d 5deb 7a3c 65dd dabd
00000190: 2f98 533d 941e c43b 2ff4 3e3d 2324 503d
000001a0: 7e93 0fbc 79d1 73bd b19c 8cbc d96d 4c3d
000001b0: 48cb d7bb e666 8dbc 64de 803d 7874 0bbd
000001c0: 6ea7 aebd 9e5a 50bc 898b 163d 57d6 4d3d
000001d0: 09f8 f63c 568f 693d 211c f33b 1a24 9f3d
000001e0: e970 34bc 0dff c73a c9ee 5b3b 589a 84bc
000001f0: 19e3 823c 605f 893c a7e0 163d 8bb8 8fbc
00000200: 1760 963d c038 86bd dabf 633c 1b06 fc3c
00000210: 8284 b13c b0ba 19bd b2a2 853c 5da6 1d3d
00000220: 37f7 383c ec32 50bd ac0b 2d3d 7a6c ddbd
00000230: f07c 1abc 00b9 7a3d ff1e 34bc 67eb 55bd
00000240: 9403 b33c 9aab 6d3d 07f6 343d 9380 80bc
00000250: 7d4b 273d bb3d 013d 01da e53c 8b13 7bbc
00000260: cfba dfbc aa5a 5dbd 2679 863d d59e d2bc
00000270: 1f4d fd3c 49dc 133c 0200 78bd aafa 3e3b
00000280: b435 07bc e1b5 733c 8a58 14bd bcea 9abc
00000290: e18b 3d3d 2ecb 193d 20f8 86bc efae 0abc
000002a0: 5c23 b13b e730 953d 4326 7dbc bbbb 5cbd
000002b0: 98da ad3c 31ed 85bc 1eb3 b73b cdd7 003d
000002c0: 0669 453d 5453 4d3c 96de c9bc 745a 843c
000002d0: 3a1a 5dbc f9af 8f3c 43cb 123d 727d 753c
000002e0: ffc2 62bc 8918 f63b 9a1f 5c3c 96b6 a5bc
000002f0: 8b02 8dbc 5830 bf3b d4aa 263d 90c9 663d
00000300: ec35 013d 71ee ac3d eb7d 13bd 24fe 603d
00000310: f3eb 17bc 4739 abbc 5411 bd3c 655a aebc
00000320: 2887 45bc 562e fa3c 9381 a0bc 67cf 67bc
00000330: 6dbb 07bd 36a1 1d3d 800d 9e3d e80b 893c
00000340: 0285 f23c 2a9d 97bd 39fb eb3c 088e 4a3a
00000350: b546 613d 78a0 02be f0cf f73c e635 4bbc
00000360: c8c5 913c 4114 943d 39d7 cc3c 2294 663d
00000370: a05b 34bd 66b6 9abc 2de0 f7ba ca81 8a3c
00000380: 02b8 97bc 1f50 e13c b600 4fbd 4a86 143d
00000390: 78ba 8ebd 6d8a 6d3c fb37 22bb 0f1b 11bc
000003a0: 3358 7fbc 417c 07bc bebf 323d f9c7 9b3b
000003b0: 7b78 173d b6af 5dbe cbe3 7f3d 481f 0e3d
000003c0: 96b5 babd f7b2 153c 9fcd 0fbe 7f77 33bd
000003d0: a8b3 98bd e76b c63d 9d85 3bbd fb19 af3b
000003e0: 0551 34bd d4bb 57bd 7676 77bd 7ccb 023d
000003f0: 1bdf 01bd aaaa bd3c c4eb 7ebc edae 843b

linear.bias f4 [15]
1.8978734 0.26501647 0.086744696 -0.00792403 -0.051832423 -0.08656411 -0.14635518 -0.21546572
-0.27462578 -0.27631503 -0.0888639 -0.26319376 -0.23942998 -0.28502497 -0.34432924
00000000: 84ed f23f 3db0 873e 34a7 b13d cad3 01bc
00000010: 3c4e 54bd 8648 b1bd 22de 15be 0ca3 5cbe
00000020: c09b 8cbe 2a79 8dbe 47fe b5bd 55c1 86be
00000030: 222d 75be cbee 91be ec4b b0be
