Assignment 2/finalModel_state_dict.pth (torch, 25452 bytes, 2 tensors)

linear.weight f4 [15, 396]
0	0xbd6ee502	-0.058323868
1	0x3c64cb1b	0.01396444
2	0x3ca0d510	0.019632846
3	0xbc7c74e9	-0.015408733
4	0x3d5e69f8	0.05430028
5	0x3cf54b13	0.029943025
6	0x3dbf1e79	0.09331984
7	0xbd8e8e08	-0.06960684
8	0x3d753142	0.05986143
9	0xbd4dc973	-0.050240945
10	0x3d8ff6d9	0.07029504
11	0x3c0221ac	0.007942598
12	0xbdc5a5d7	-0.09650772
13	0xbcf57a50	-0.02996555
14	0xbcb2db0f	-0.02183297
15	0x3d0ab981	0.033868317
16	0xbd7d097b	-0.06177662
17	0x3b9c2def	0.004766218
18	0x3dc21901	0.09477425
19	0x3d8a7d21	0.06762148
20	0xbdb633e7	-0.08896618
21	0xbd933f8e	-0.071898565
22	0x3d88213f	0.06646966
23	0x3bc7ad41	0.0060936515
24	0x3cf4ff4d	0.029906893
25	0x3e8b6636	0.27226418
26	0x3dba5e61	0.091000326
27	0x3d81687b	0.06318756
28	0xbd883f6d	-0.066527225
29	0xbd8ef094	-0.069794804
30	0xbdd073f2	-0.10178365
31	0x3d2efbb1	0.0427205
32	0x3cb56ddc	0.022147112
33	0x3ca557c6	0.020183455
34	0x3ca68d90	0.020331174
35	0x3c95fd4d	0.01830926
36	0x3d24f963	0.040276896
37	0xbd08e89a	-0.03342495
38	0x3dfd1dd1	0.12359203
39	0x3d51e116	0.05124005
40	0x3e0908f0	0.13382316
41	0x3c99f2ae	0.018792477
42	0x3d690279	0.056887124
43	0xbd493bde	-0.04912936
44	0xbda39c2c	-0.07988772
45	0xbc8c6f1b	-0.017142823
46	0x3cfc89f6	0.030827504
47	0xbb29317b	-0.0025816846
48	0xba99e75a	-0.0011741922
49	0x3cce17e8	0.025157884
50	0x3c5d02df	0.013489454
51	0xbda0a0f6	-0.07843201
52	0x3d7eaf9b	0.06217919
53	0xbd1e1bee	-0.038600855
54	0xbcae6c0b	-0.021291753
55	0x3d326da1	0.04356158
56	0x3d5305f2	0.05151934
57	0x3bbd3e33	0.005775237
58	0x3c1d8690	0.009614602
59	0xbe187621	-0.14888813
60	0xbed8b21b	-0.42323384
61	0x3d665deb	0.05624191
62	0x3c392055	0.011299212
63	0xbdd5cb21	-0.104391344
64	0x3c0374f7	0.008023492
65	0xbd1d291a	-0.038369276
66	0xbc4d1658	-0.012517534
67	0xbd0c9203	-0.034318935
68	0x3ccce37c	0.025010817
69	0x3d66f0b9	0.056381915
70	0xbc14858c	-0.009065043
71	0xbccc0d33	-0.024908638
72	0xbc6638e6	-0.014051652
73	0x3d60cb5f	0.05488145
74	0xbd6f1825	-0.058372635
75	0xbc64c430	-0.01396279
76	0x3d263c8d	0.04058509
77	0x3d34791a	0.044060804
78	0x3c88ee34	0.016715147
79	0x3c9809ed	0.01855942
80	0xbccf6576	-0.025316935
81	0x3c978f49	0.01850094
82	0xbca665d6	-0.020312231
83	0x3d8ba0d7	0.06817787
84	0xbd13fe53	-0.036131214
85	0x37d8766f	2.5804356e-05
86	0x3b3e7d7a	0.002906649
87	0x3c0f7aa2	0.008757265
88	0x3ca6a1c8	0.020340815
89	0xbca2cbaf	-0.019872515
90	0xbd9387c8	-0.072036326
91	0x3cb95142	0.022621755
92	0xbd4dc3e7	-0.050235655
93	0x3b4b0116	0.003097599
94	0x3d201ea6	0.03909173
95	0xbca6baac	-0.020352684
96	0x3ca313c0	0.019906878
97	0x3c9b6c2b	0.018972477
98	0x3c6b24d2	0.01435204
99	0xbdf62332	-0.12018432
100	0x3d376bcb	0.044780534
101	0x3c975da5	0.01847727
102	0x3c9ee935	0.019398311
103	0x3cee8ffe	0.029121395
104	0xbd5bab21	-0.053629998
105	0xbd2987bc	-0.041389212
106	0xbcdd52a3	-0.027016943
107	0x3d545d6a	0.0518469
108	0x3c0d20dc	0.008613791
109	0x3bb3d06e	0.0054874932
110	0x3c727d1f	0.014800339
111	0xbd02920c	-0.031877562
112	0xbb67527e	-0.0035296972
113	0xbd451d87	-0.048123863
114	0x3d19b88f	0.037529524
115	0x3cac977b	0.021068325
116	0x3c8cf803	0.017208105
117	0x3cc53460	0.024072826
118	0x3ccd2481	0.02504182
119	0x3d26b29b	0.040697675
120	0xbb6e99d6	-0.0036407611
121	0x3c08fa4b	0.008360456
122	0x3c465fb0	0.012107775
123	0xbbb56273	-0.0055354177
124	0x3ca2b418	0.019861266
125	0x3ca9da1c	0.020733885
126	0x3cf9bb1b	0.030484727
127	0xbc4ede7a	-0.012626285
128	0x3d404711	0.046942774
129	0xbd89daf9	-0.06731219
130	0x3c9a107d	0.01880669
131	0x3c5ad71b	0.013356949
132	0x3c7e961e	0.01553872
133	0xbcf2a0ad	-0.029617632
134	0x3d37cc53	0.044872593
135	0xba803d61	-0.0009783917
136	0x3c43fd12	0.011962192
137	0xbd69f7be	-0.05712103
138	0xbafb3cff	-0.0019167959
139	0xbd438bb2	-0.047740646
140	0x3c3e1a84	0.0116030015
141	0x3d43cdba	0.047803618
142	0xbc908724	-0.017642565
143	0xbc25b5d0	-0.010114148
144	0x3c9c9602	0.019114498
145	0x3d00538f	0.031329688
146	0x3ce1d84c	0.027568959
147	0xbc4bd65f	-0.012441247
148	0x3cdbfabe	0.026852962
149	0x3d4540ea	0.04815761
150	0xbb21374d	-0.0024599612
151	0xbd2003fc	-0.0390663
152	0xbcf64f29	-0.030067043
153	0xbd11b9a4	-0.03557743
154	0x3cd7dc28	0.026350096
155	0xbc32aa46	-0.010904854
156	0xbb14178d	-0.0022597045
157	0x3be8d504	0.0071054716
158	0xbcceb652	-0.025233421
159	0xbc5012cc	-0.012699794
160	0xbc1d04a2	-0.009583624
161	0xbd04595a	-0.032311775
162	0xbceed88c	-0.029155992
163	0xbd1ec411	-0.038761202
164	0x3aaa0719	0.0012972086
165	0x3ce71dd0	0.028212458
166	0xbd4532e1	-0.048144225
167	0x3a3f6f90	0.0007302696
168	0xbb623af2	-0.0034519997
169	0x3ca4cf1b	0.020118287
170	0xbcd86df9	-0.026419627
171	0xbce55841	-0.027996184
172	0xbbaa21dd	-0.005192025
173	0x39f252f2	0.00046219636
174	0xbbc7b3ca	-0.0060944306
175	0x3d5fac4a	0.054607667
176	0x3d0c8072	0.034302182
177	0x3bd6b035	0.0065517672
178	0xbcc04d59	-0.023474382
179	0x3c0d0b4c	0.00860865
180	0xbbfa483d	-0.007638006
181	0x3a23ec62	0.00062531803
182	0x3bfa5ec1	0.00764069
183	0x3cf87c6d	0.030332768
184	0xbc5f8324	-0.013642106
185	0xbc2d82c7	-0.010590262
186	0xbbb17a70	-0.005416207
187	0xbd41a1ae	-0.04727333
188	0xbd108f49	-0.035292897
189	0xbd38c6f0	-0.045111597
190	0x3d4054f6	0.046956025
191	0x3d546759	0.051856373
192	0x3d03dcfd	0.032193173
193	0x3db9ef73	0.090788744
194	0xbd0e2aec	-0.034708902
195	0x3d432afc	0.047648415
196	0x3c8021ba	0.015641082
197	0xbd0989dd	-0.033578742
198	0x3cfbfebf	0.03076112
199	0x3d00249e	0.03128492
200	0x3bb7f09f	0.005613401
201	0x3ae45c71	0.0017422569
202	0xba9e8da9	-0.0012096661
203	0xba433946	-0.0007447194
204	0xbd126798	-0.035743326
205	0x3cb4638b	0.022020122
206	0x3d883446	0.06650595
207	0xbc7acd68	-0.015307762
208	0x3c9bda73	0.019025063
209	0xbcc3b3d1	-0.023889454
210	0x3b279b57	0.0025574767
211	0x3cb160ee	0.021652665
212	0x3d0a2184	0.03372337
213	0xbe26d45f	-0.1629195
214	0xbcac517e	-0.021034952
215	0xbbab5c02	-0.005229474
216	0x39b15f15	0.00033830912
217	0x3d9047d2	0.07044949
218	0x3d47e443	0.04880167
219	0x3da72847	0.08161979
220	0xbd49e764	-0.049292937
221	0xbd3563d6	-0.044284664
222	0x3d2a6eb7	0.041609492
223	0xbc341d10	-0.010993257
224	0xbd12b1e9	-0.0358142
225	0x3bd60674	0.006531531
226	0xbd0a282e	-0.033729725
227	0x3d2a8212	0.04162795
228	0xbd6b79ef	-0.05748933
229	0x3c3d3e56	0.011550507
230	0x3ca87e52	0.020568047
231	0xbbc8c4d3	-0.006126979
232	0xbcaefb05	-0.02135993
233	0xbcfa5d74	-0.03056214
234	0x3d6ff177	0.05857989
235	0x3d833837	0.064072065
236	0x3cb4e3be	0.022081252
237	0xbe294b68	-0.16532671
238	0x3c7ce30b	0.015434991
239	0x3c84e5f0	0.016222924
240	0xbd2af0f3	-0.041733693
241	0xbc907840	-0.017635465
242	0xbe07299e	-0.1319947
243	0xbcc7cffa	-0.024391163
244	0xbd950cdb	-0.072778426
245	0x3d822080	0.06353855
246	0x3c05c5d0	0.008164838
247	0x3d4e30c8	0.05033949
248	0xbdaed9ea	-0.085376576
249	0xbd856315	-0.06513039
250	0xbd5cab88	-0.053874522
251	0x3d75790f	0.059929904
252	0x3c4b2707	0.012399442
253	0x3d174109	0.036927257
254	0x3c3b7f35	0.011443903
255	0xbc82dfb5	-0.015975812

linear.bias f4 [15]
0	0x3f765b32	0.96232903
1	0x3e858806	0.2608034
2	0x3e19f144	0.15033442
3	0x3ccb344c	0.02480521
4	0xbca6c3d6	-0.020357054
5	0xbd3a7fde	-0.0455321
6	0xbdb36ead	-0.08761344
7	0xbdc79113	-0.097444676
8	0xbe287155	-0.16449483
9	0xbe32d8fc	-0.17465585
10	0xbd7ee3b6	-0.06222888
11	0xbe1a6844	-0.15078837
12	0xbe265aa8	-0.1624552
13	0xbe512fff	-0.20428465
14	0xbe69e65b	-0.2284178
