Assignment 2/finalModel_state_dict.pth (torch, 25452 bytes, 2 tensors)

linear.weight f4 [15, 396]
-0.040820047 0.046625305 0.0049067177 -0.03748816 -0.019484123 0.017308127 0.014964487 -0.031323098
0.038166147 0.027928162 -0.003587015 -0.03978286 0.006811302 -0.015199587 -0.011520352 -0.0040290616
-0.04732036 0.048042078 0.024632845 0.022027534 -0.03109495 0.028369967 -0.023186235 0.028552692
0.024356965 0.032973487 -0.041613307 0.0045739263 0.011961043 0.009911377 -0.04147024 0.0040129535
-0.013090592 0.024507735 -0.026251044 0.015236411 0.044688124 -0.002959866 -0.04599713 -0.04713623
-0.031741988 -0.043703407 0.025200952 0.016509559 -0.0485124 0.04196054 -0.037578844 0.037714
0.0035359822 0.025690284 0.031481232 -0.023359379 0.026386928 -0.00025763735 0.047872256 -0.03677069
0.027153786 0.043485794 0.034230705 -0.03113959 0.04188003 0.030461635 -0.033137977 0.020117339
-0.0031778067 0.007539369 -0.0058954395 0.04088023 0.02778538 -0.003657326 0.03195436 -0.0016166903
-0.0120252855 0.0060532503 0.009470571 0.02714989 0.022899535 -0.03432051 -0.0066325665 -0.035654895
-0.011197522 -0.04656201 -0.024129637 0.017185856 -0.011679847 -0.022762246 0.044911753 -0.03252033
0.0001582019 0.020172555 0.041801166 0.010599703 0.010454554 0.031392243 0.047087308 -0.04056994
0.03361276 -0.005175438 0.0023599714 -0.04920508 -0.028336806 0.002122637 -0.04367947 0.02229153
0.02251153 -0.030765358 0.031144481 0.0016220324 -0.023527263 0.049770724 -0.0065628104 0.02033009
0.0169735 -0.021391599 0.010860462 0.05021408 0.014445934 0.038702454 -0.010894574 0.014811475
-0.026069777 -0.005900312 -0.0069262125 -0.03623827 0.043068472 0.040516924 0.040211704 0.0065687075
-0.047260243 0.01635592 0.008771345 -0.009232685 -0.00021336228 0.025350314 -0.04393404 -0.014027618
0.033005852 0.04653551 0.027917955 -0.014926683 -0.0015503466 0.022444252 0.044768322 0.033360694
0.039494622 -0.04889499 -0.04732696 0.033280145 -0.0433543 0.008443292 0.025676992 -0.045308363
0.015793618 -0.042901557 0.016075294 -0.04383997 -0.025246462 -0.035401944 0.005860295 -0.010991707
-0.008452937 0.031220037 0.04030041 -0.04877874 0.023646343 0.042756747 -0.036824826 -0.021561032
0.022341501 0.02708571 0.035460014 -0.00048263744 0.024705637 -0.048457343 -0.008177634 -0.043747444
-0.04534453 0.01841217 -0.009634081 0.034642722 -0.012450371 -0.004972331 -0.002837222 0.037014995
0.04302467 0.03207388 0.011890814 0.030573193 0.017735247 -0.012405686 -0.04175981 -0.008029211
-0.010087714 0.002958171 0.007743448 -0.010567844 0.04112595 0.043346073 0.022568595 0.03654824
-0.045164112 -0.044389665 -0.032543406 -0.021295493 -0.00019757077 -0.04122214 0.005854875 0.019622412
0.0008068904 0.026271213 0.007602617 -0.017347943 0.044403005 0.03500664 0.048939746 -0.041206956
-0.012629587 -0.033825256 -0.04851471 0.04057925 -0.041532286 0.049537886 0.017033454 0.010645524
-0.0028452687 0.04864608 0.011461418 -0.016404737 1.36345625e-05 -0.010127015 0.04053842 0.02238271
-0.045687363 -0.030659309 0.015764441 -0.015260898 0.012501519 0.022423822 -0.044756733 0.018597301
-0.034576684 0.04395583 -0.03980812 0.026619565 0.019982632 -0.02695175 0.046197888 0.01596922
0.020522308 -0.027005168 -0.009854965 -0.04153055 0.011834141 -0.020546453 0.0045573264 0.012083452
00000000: ec32 27bd 2dfa 3e3d 88c8 a03b 2f8d 19bd
00000010: 2b9d 9fbc c6c9 8d3c 9c2d 753c a64c 00bd
00000020: 1b54 1c3d 9ac9 e43c 2014 6bbb 5af3 22bd
00000030: 5831 df3b b007 79bc dcbf 3cbc 3806 84bb
00000040: fed2 41bd c5c7 443d d2ca c93c 1673 b43c
00000050: d6ba febc 2268 e83c 0ff1 bdbc 56e7 e93c
00000060: 4288 c73c 350f 073d b772 2abd e0e0 953b
00000070: 40f8 433c 5463 223c b3dc 29bd 187f 833b
00000080: ec79 56bc 72c4 c83c 6e0c d7bc 24a2 793c
00000090: e50a 373d 50fa 41bb 7d67 3cbd eb11 41bd
000000a0: e303 02bd 5802 33bd 3a72 ce3c 0e3f 873c
000000b0: f0b4 46bd d1de 2b3d 46ec 19bd ff79 1a3d
000000c0: f0bb 673b 6e74 d23c 77f2 003d 2b5c bfbc
000000d0: 6629 d83c 8013 87b9 b315 443d dd9c 16bd
000000e0: 9e71 de3c 291e 323d 7f35 0c3d 7418 ffbc
000000f0: 658a 2b3d ae8a f93c b0bb 07bd 1ecd a43c
00000100: c042 50bb d00c f73b 882e c1bb 0772 273d
00000110: 2a9e e33c c0af 6fbb 93e2 023d 20e7 d3ba
00000120: b405 45bc 585a c63b 742a 1b3c 7269 de3c
00000130: ce97 bb3c aa93 0cbd 0056 d9bb de0a 12bd
00000140: d075 37bc ceb7 3ebd 84ab c5bc 5ac9 8c3c
00000150: d45c 3fbc e477 babc 63f5 373d 0a34 05bd
00000160: 00e3 2539 ea40 a53c b337 2b3d 60aa 2d3c
00000170: 9449 2b3c 2795 003d 9fde 403d aa2c 26bd
00000180: 89ad 093d b896 a9bb c0a9 1a3b 448b 49bd
00000190: 9722 e8bc f01b 0b3b 3ee9 32bd ba9c b63c
000001a0: 1a6a b83c a207 fcbc b622 ff3c 609a d43a
000001b0: 3fbc c0bc 63dc 4b3d d80c d7bb 4a8b a63c
000001c0: 020c 8b3c 6f3d afbc 14f0 313c 47ad 4d3d
000001d0: a4ae 6c3c 7786 1e3d 287f 32bc d4ab 723c
000001e0: 4990 d5bc 6857 c1bb 48f5 e2bb 956e 14bd
000001f0: 9168 303d 13f5 253d 07b5 243d 503e d73b
00000200: f593 41bd dafc 853c b0b5 0f3c b044 17bc
00000210: 00ba 5fb9 76ab cf3c 2ef4 33bd 18d4 65bc
00000220: 2531 073d 059c 3e3d 32b4 e43c 0c8f 74bc
00000230: 0035 cbba 02dd b73c fd5e 373d 39a5 083d
00000240: 1dc5 213d 1d46 48bd ead9 41bd c350 083d
00000250: 4794 31bd bc55 0a3c 8e58 d23c 4395 39bd
00000260: 9e61 813c 8bb9 2fbd 56b0 833c 8a91 33bd
00000270: abd1 cebc a101 11bd b807 c03b 9016 34bc
00000280: 307e 0abc 2ac1 ff3c 0b12 253d 37cc 47bd
00000290: fab5 c13c b321 2f3d a1d5 16bd c3a0 b0bc
000002a0: 8605 b73c dae2 dd3c 853e 113d 800a fdb9
000002b0: 7a63 ca3c 357b 46bd 7cfb 05bc 8530 33bd
000002c0: 30bb 39bd 1ed5 963c 44d8 1dbc 87e5 0d3d
000002d0: a4fc 4bbc f0ee a2bb b0f0 39bb 099d 173d
000002e0: a33a 303d e75f 033d b0d1 423c a274 fa3c
000002f0: 8249 913c 3841 4bbc 560c 2bbd f48c 03bc
00000300: f046 25bc e0dd 413b c0bc fd3b c024 2dbc
00000310: af73 283d a78b 313d c6e1 b83c 9bb3 153d
00000320: 01fe 38bd f0d1 35bd 3c4c 05bd e373 aebc
00000330: 002b 4fb9 8cd8 28bd 40da bf3b 2ebf a03c
00000340: 8085 533a ba36 d73c 601f f93b 461d 8ebc
00000350: eddf 353d 1f63 0f3d 0b75 483d a0c8 28bd
00000360: 54ec 4ebc 5a8c 0abd 5cb7 46bd 6d36 263d
00000370: c21d 2abd 3de8 4a3d be89 8b3c 906a 2e3c
00000380: b077 3abb 1d41 473d acc8 3b3c 3a63 86bc
00000390: 00c0 6437 c8eb 25bc 9d0b 263d f25b b73c
000003a0: ac22 3bbd 3b29 fbbc 6e24 813c d808 7abc
000003b0: 2cd3 4c3c 2ab2 b73c d652 37bd 5e59 983c
000003c0: 48a0 0dbd 070b 343d d70d 23bd 4611 da3c
000003d0: 9eb2 a33c ebc9 dcbc ff39 3d3d e2d1 823c
000003e0: 661e a83c f139 ddbc b876 21bc f01b 2abd
000003f0: fce3 413c 0951 a8bc a055 953b acf9 453c

linear.bias f4 [15]
-0.008752018 -0.013114296 -0.048723765 -0.034228288 -0.04772449 -0.006946977 -0.02643812 -0.020622376
0.0016661957 0.036142174 -0.014870413 -0.0004895963 -0.020420762 -0.040281225 -0.046429984
00000000: a064 0fbc 58dd 56bc 9292 47bd f632 0cbd
00000010: c17a 43bd 78a3 e3bb c294 d8bc 42f0 a8bc
00000020: 4064 da3a d109 143d 08a3 73bc 4058 00ba
00000030: 7149 a7bc edfd 24bd 5e2d 3ebd
