Assignment 2/finalModel.pth (torch, 26090 bytes, 2 tensors)

weight f4 [15, 396]
00000000: 2720 73bd 611b 263c 58fb 8e3c 877f 32bd
00000010: 6939 713d 68c9 e43c 251e 9d3d 22bb a3bd
00000020: 8ee3 a73d 711d 87bd 4629 9a3d b234 d43b
00000030: 1c2d a3bd 7770 d9bc 575c 72bc 04d2 293d
00000040: cff4 81bd b433 093d f458 bf3d b298 9d3d
00000050: 6cbd b3bd cd03 78bd a693 a83d 4d38 8a39
00000060: 6be1 3b3d 3572 833e 6411 a33d cb1b 743d
00000070: ec89 9bbd 0bd8 89bd 6a59 d5bd ea73 573d
00000080: 8b6d ad3c db68 b13c b3d6 023d f5b3 e73c
00000090: 01c6 123d fbc4 22bd aacc 013e ed94 3d3d
000000a0: 2230 0d3e b68c 453c 0cfe 733d 3e37 8cbd
000000b0: 5777 b9bd 58f8 ffbc e3e4 f43c 3611 2c3b
000000c0: b9a5 36bc ae31 e03c 10a9 8b3b d738 9fbd
000000d0: 1d3b 9f3d b91c ffbc f704 c4bc 1a99 343d
000000e0: 0a23 123d 4b41 973c a3be 143c 179d 0cbe
000000f0: 67e2 d4be 1dcb 6f3d 0c30 163c a3b4 bdbd
00000100: 202f ad3b 9ed8 57bd 6ed2 c8bc 6b5a 24bd
00000110: e691 d73b 59a7 1c3d 8392 bdbb 2640 9ebc
00000120: 5c80 02bd f769 2e3d ac5b 60bd 85d9 aebc
00000130: 144f 543d 6eaa 143d a3e8 e73c 0faf b43c
00000140: 7c2f a6bb 2b26 d83c 5be5 d9bc d0c6 973d
00000150: 64bd 0bbd 01d1 67bc facd d83a 5a93 7e3b
00000160: c322 f03c 79cc 9cbc b964 a4bd 6fe6 c83c
00000170: b493 3cbd 9124 c53a b318 453d 3b64 e5bc
00000180: 0ade fe3c 662e 983c ff2f 073c a4b7 edbd
00000190: d334 2e3d 815e 803c d3ac a73c 69cb 463d
000001a0: fc27 85bd 6438 06bd c995 54bc c301 3a3d
000001b0: 519a c43b 5fc0 0bbc 9979 e53c bee3 a6bc
000001c0: 5621 b5bc d8f5 4cbd 88ec 133d 97be e33c
000001d0: f0e1 be3b c3e5 973c 8b09 9b3c 49ed 403d
000001e0: f3f8 01bc 42c8 4a3c d065 c33c d4aa 5dbc
000001f0: aaba 903c 2949 8c3c 55e9 d73c f45a 74bc
00000200: 364b 513d 5fdb 83bd a0bb a13c 6845 163c
00000210: 161e b93c 4e24 b3bc 010b 153d 62a7 15bb
00000220: fd5c 603c 8248 3ebd 68a8 193b 363f 86bd
00000230: 394b 713b 5012 6a3d adb2 16bc de39 9dbb
00000240: 85fb 9f3c bd93 ec3c dc80 053d 7e03 82bc
00000250: a0d6 1f3d 308b 383d ca6c 113c 4758 a8bc
00000260: a02f fbbc 1a80 19bd a5f5 633c e331 88bc
00000270: 82bc dbbb 6482 993c c99a b0bc 40e9 aebb
00000280: 3f1f 60bc 179c cfbc 2a8b a5bc 3530 d6bc
00000290: 3926 633c 709d 163d 72f2 64bd 0e0f 8f3a
000002a0: 34d8 1e3c 29f0 a33c 8e1c acbc bfea d7bc
000002b0: 4ce6 193c 8694 693b 1fac b23b cb96 6e3d
000002c0: 5bcd 623d 636b 823b 040b 23bc bf71 813c
000002d0: c300 96bc a910 91bb d021 973b 66e3 de3c
000002e0: 06aa cdbc 453f afbc db4a 053c d87b 1bbd
000002f0: 1096 0cbd 4969 44bd 7780 5a3d 8e69 d33c
00000300: 8d61 f03c 881e 993d 4759 27bd d95b 6e3d
00000310: af7c 8c3c 660a 87bc 1cb7 103d 29c1 c43c
00000320: 3591 623b ff0c 073b 50a9 0dbc 3c46 acbb
00000330: 8347 fcbc d5c6 153d cfc8 9c3d cc85 dabc
00000340: e209 d53c 3df7 eabc e700 54bc 5bca 643c
00000350: 0667 d23c 0aac 26be c4f5 adbc a146 68bc
00000360: cdab a93b e67f 9e3d 84d2 603d d725 9b3d
00000370: 6963 34bd 6aec 3bbd 9dee 0e3d 8e2f 963b
00000380: ede9 c9bc d6d5 e339 7c3c 08bd 3381 333d
00000390: 11c6 54bd 48ce 683b 6a50 23bb 71ea 4f3b
000003a0: eda3 22bc 8426 20bd 8479 943d c3ef 903d
000003b0: a9c1 b73c 594f 2fbe 7075 1b3c 7999 933b
000003c0: 1adf 3dbd a599 88bc a9e2 f7bd dc78 17bd
000003d0: 6aab 7dbd 7dc5 923d 29ad d43a 70c8 533d
000003e0: 1d7b a0bd 7598 82bd c402 fcbc 5d82 363d
000003f0: 02be a43c 59b2 fc3c 7dc5 713c c8bf c13a
-0.059356835 0.010138364 0.017453834 -0.04357865 0.05889264 0.02792807 0.07671765 -0.07994677
0.081976995 -0.065974124 0.075274035 0.0064760083 -0.07967588 -0.026542885 -0.014792523 0.041460052
-0.06345522 0.033496574 0.09343138 0.0769514 -0.08776364 -0.0605505 0.08231287 0.00026363358
0.045869272 0.2567307 0.079623014 0.059596818 -0.07594666 -0.0673066 -0.10417445 0.05260078
0.021170398 0.021656444 0.031943034 0.028284052 0.035833362 -0.039738636 0.1267573 0.046284605
0.13787892 0.012057474 0.05956845 -0.06846474 -0.090559654 -0.03124635 0.029894298 0.0026255376
-0.01114791 0.02736744 0.004262097 -0.07774513 0.07774947 -0.031141626 -0.023928149 0.04409132
0.035677947 0.018463751 0.009078654 -0.137318 -0.4157898 0.058543313 0.009166729 -0.09262969
0.0052851588 -0.052696817 -0.024514403 -0.04012529 0.0065786717 0.038245533 -0.005785288 -0.019317698
-0.031860694 0.042581525 -0.054774925 -0.021343956 0.051833227 0.036295347 0.028309172 0.02205613
-0.0050715785 0.026385387 -0.026598623 0.07410967 -0.034116164 -0.0141489515 0.0016540878 0.0038845153
0.02931345 -0.019140469 -0.08027024 0.024523942 -0.0460393 0.0015040805 0.048119258 -0.028001895
0.031111736 0.018576812 0.008251189 -0.11607292 0.042530846 0.015670063 0.020468151 0.04853383
-0.06501767 -0.032768622 -0.012975165 0.045411836 0.0059998413 -0.008529752 0.028012084 -0.020372268
-0.022110622 -0.050039142 0.036114246 0.027800841 0.0058252737 0.018542176 0.018925449 0.047101293
-0.007932889 0.012376847 0.023852259 -0.013529498 0.017667133 0.01712473 0.026356379 -0.014914263
0.051097117 -0.06438326 0.019742787 0.009171821 0.022597354 -0.021867897 0.036387447 -0.0022835364
0.013694045 -0.046455868 0.0023446325 -0.06555025 0.0036818518 0.05714637 -0.009197873 -0.004798158
0.019529114 0.02887904 0.032593593 -0.015870806 0.03902304 0.045054615 0.008876035 -0.020549906
-0.030662358 -0.037475683 0.013913547 -0.01662535 -0.0067058215 0.018738933 -0.021558182 -0.005337864
-0.013679325 -0.025342984 -0.02020796 -0.026146034 0.013864093 0.036771238 -0.055895276 0.0010914521
0.0096951015 0.020011978 -0.02100971 -0.026357053 0.009393286 0.0035641505 0.0054526473 0.058249276
0.055371623 0.0039800867 -0.009951357 0.015801309 -0.01831091 -0.004427035 0.004612185 0.027208041
-0.025105488 -0.021392474 0.008135523 -0.037959903 -0.0343228 -0.04795197 0.05334517 0.025807168
0.02934339 0.074765265 -0.040856626 0.05819306 0.017149298 -0.01648445 0.035330877 0.024017887
0.0034571413 0.0020607112 -0.008646324 -0.005257396 -0.030795818 0.036566574 0.07655489 -0.026675127
0.026005689 -0.028682346 -0.012939668 0.013964261 0.025683891 -0.16276565 -0.021235354 -0.0141769955
0.005177951 0.077392384 0.054888263 0.07575577 -0.044040117 -0.04587976 0.034895528 0.0045833057
-0.024647677 0.00043456134 -0.033260807 0.043824386 -0.051946703 0.0035523344 -0.0024919757 0.0031725431
-0.009926778 -0.03909923 0.0724974 0.07076981 0.022431212 -0.17120112 0.0094884485 0.0045043794
-0.046355344 -0.016674826 -0.12103779 -0.036980495 -0.06193105 0.07166574 0.0016225922 0.051704824
-0.07835982 -0.06376735 -0.030763038 0.044557918 0.020110134 0.030846762 0.0147565575 0.0014781887

bias f4 [15]
00000000: 85ff 753f d30f 853e 8078 1a3e 6622 fc3c
00000010: 5a7d 6dbc 05dd 39bd 3a54 a6bd bbc9 ddbd
00000020: c02e 27be 0e13 37be bcae 5dbd 3e08 1fbe
00000030: 9feb 25be 5aec 56be c42e 6bbe
0.96093017 0.25988635 0.1508503 0.030778121 -0.014495218 -0.045376796 -0.08121534 -0.10829493
-0.16326427 -0.17878363 -0.054121718 -0.15530488 -0.16203164 -0.20988598 -0.22967058
