Assignment 2/finalModel.pth (torch, 26090 bytes, 2 tensors)

weight f4 [15, 396]
00000000: 2511 4dbd a690 d8ba 5e59 813c 0bd0 89bc
00000010: 6d45 483d 6456 193d c1e4 bf3d f32a 92bd
00000020: 140e 9e3d 8139 62bd e742 993d ba07 5c3c
00000030: b850 b0bd f9f6 cfbb c90f f8bb eec9 133d
00000040: e44b 86bd 4a53 f23c 95dc af3d 045d 893d
00000050: e9e2 cebd 3dc5 80bd 546a 7d3d 322a 373b
00000060: f359 203d 1b2b 843e cf4a b33d 5efd 903d
00000070: af5e 82bd 9c56 b1bd 0cdc e8bd b66d 383d
00000080: caa4 8e3c 694e 9c3c f8ca a93c 7b10 a03c
00000090: 2382 243d 3210 21bd 1cf7 163e bc2c 1b3d
000000a0: 1d47 0e3e 0667 b13c 336a 813d b8c0 67bd
000000b0: e0e5 a2bd 253d 90bc 5449 dc3c d723 06bc
000000c0: f8f7 843b 43d4 f83c 1c3c 563c 87df b1bd
000000d0: b7ef 863d c652 e9bc dfb4 71bc 6cad f93c
000000e0: aafa 313d 11ad 643c f833 14ba 8b2f 13be
000000f0: d3d9 d2be 6593 443d 904c 8abb 33bb bdbd
00000100: 767b 29bc dc1a 2ebd 189c 05bd db5a 2fbd
00000110: d8c6 943c 529c 663d 637f 813a 888a 28bc
00000120: f878 a7bc d091 5a3d 8c40 81bd 64f2 6dbc
00000130: 7714 413d f493 073d 0ebe bf3c 6274 743c
00000140: de11 83bc 1a4c e23c b305 0cbd 8ed2 883d
00000150: 192f f4bc 185f 553b 68b7 0d3b b0fb d6ba
00000160: 41fb 023d c5ba cdbc 2cd9 82bd 09e5 2d3d
00000170: 704d 20bd c9fc 39bc 8149 033d 6fcf c6bc
00000180: ff67 fb3c 07fd 4a3c b377 ec3a ce0e 00be
00000190: b437 333d 1aa5 f83c 796d fa3c 8a8b be3c
000001a0: 8ed0 72bd 3227 42bd f5a8 23bc 99e9 5e3d
000001b0: 0c73 6b3c 2744 0f3b d440 d93c 1253 c5bc
000001c0: 1e82 63bc 9505 78bd b832 223d abaa e03c
000001d0: c99d 61ba df97 9b3c 4ec2 833c 88e4 e53c
000001e0: 5cc7 e23a 8a65 8d3c 1f2c a23c ba30 b7bc
000001f0: dc56 bd3b d511 ea3c 530e 073d 8c79 76bc
00000200: df4f 3b3d f4cf 8dbd 4502 853c bebb fc3b
00000210: 3cf0 2b3c fc29 ddbc f7c5 e33c dd7e 533c
00000220: 8b08 1c3c e403 18bd 2ba4 68bc c47b 39bd
00000230: 0664 43bc 16eb 6b3d dd7e 54bc 7d0f 07bc
00000240: 5636 b03c 5707 803c 4790 ca3c 9f94 32bc
00000250: d525 d23c e642 3e3d 8eb8 8bbb f019 8abc
00000260: 8505 b4bc 4c77 fcbc 89d9 493c 4025 bcbc
00000270: 415a 12bc bae8 273c f51c a2bc d7c2 45bc
00000280: 0a95 afbc ddf2 77bc 400a 37bc 3bd2 ddbc
00000290: 0221 ab3b 1db7 bc3c 626a 2cbd 409a 09bb
000002a0: 0fa1 55bb b5fe bb3c 9da8 88bc 687e 0fbd
000002b0: b9d7 a23b 2ca1 4b3a 20a2 7dbb 7e83 7d3d
000002c0: 39ad 313d c443 493b 11e0 c5bc 0236 a93c
000002d0: 7a1a 953b 7616 f23b 2aa0 8cba 95c9 353c
000002e0: 4c3e c2bb 0e11 edbc f489 793b 4b78 22bd
000002f0: cde6 21bd c419 4abd 5a93 503d 49b4 153d
00000300: 26d2 0e3d 0e31 be3d 3cb1 39bd 380a 6e3d
00000310: 8f44 703c 28d6 8cbc 2b02 973c 619b ec3c
00000320: ae3b ccbb 4fcd 933b 5858 83bc b743 5a3b
00000330: 9780 e9bc bb52 c03c 9d45 8d3d d787 d5bc
00000340: 80f7 c23c 1dfe 19bd b63e ca3c 9a04 fa3b
00000350: 3f20 853c 1eca 22be 41a2 e5bb b720 16bc
00000360: 9939 533c ed6f 963d a822 653d 6588 913d
00000370: 7fdb 42bd 4fd2 35bd 1875 113d 6eb1 c139
00000380: af45 2ebd b8c1 143c ce4f 14bd 3280 1f3d
00000390: c095 82bd b22a 813c c72e b23c 0a06 f93b
000003a0: cb6d e7bb 20ca 00bd 8c49 843d 8a68 723d
000003b0: 1f00 d13c e044 33be e723 b03c 0a56 8f3c
000003c0: cafa 3cbd bb89 25bc 8e0d ebbd 96cf 29bd
000003d0: 6fc3 85bd 44d0 473d e1fb 803b 3c42 743d
000003e0: 738c 9abd ac40 89bd df21 22bd aae7 6c3d
000003f0: 97b9 5b3c b6c7 d53c 5494 a73b 8872 33bc
-0.05006518 -0.0016522601 0.015789684 -0.016822835 0.048894335 0.037435904 0.09369803 -0.07137098
0.07717529 -0.05523062 0.07483464 0.0134295765 -0.08609146 -0.00634658 -0.007570241 0.036081247
-0.06557444 0.029580731 0.085869946 0.067071944 -0.101018734 -0.0628762 0.06186898 0.0027948734
0.039148282 0.25814137 0.08754503 0.07079576 -0.06365716 -0.086590976 -0.113700956 0.045026504
0.017412562 0.019080358 0.020726666 0.019539108 0.04016317 -0.039322086 0.14742702 0.03788446
0.13894315 0.02165557 0.06319084 -0.056580275 -0.079540014 -0.017607281 0.026890434 -0.008187256
0.0040578805 0.030374652 0.013075855 -0.086852126 0.06588691 -0.028481852 -0.014752596 0.030478202
0.043451943 0.013957278 -0.0005653496 -0.14373605 -0.41181812 0.04799213 -0.0042205527 -0.09264221
-0.010344377 -0.042506084 -0.032619566 -0.042811256 0.018161222 0.056301422 0.0009879883 -0.010286935
-0.020443425 0.053361714 -0.063111395 -0.014523122 0.047138657 0.033100083 0.023406055 0.014920326
-0.01599973 0.027624179 -0.034185123 0.06680785 -0.029807614 0.00325579 0.0021624211 -0.0016401913
0.031977896 -0.025113473 -0.063890785 0.042454753 -0.03913635 -0.011351773 0.03205252 -0.024268834
0.030689238 0.012389428 0.0018041044 -0.12505648 0.043754295 0.030352164 0.030569779 0.023259897
-0.059280924 -0.04740066 -0.009989013 0.054421995 0.014370691 0.002186069 0.02652017 -0.024087463
-0.013886003 -0.0605522 0.03959915 0.02742513 -0.00086065807 0.018993316 0.016083863 0.028063074
0.0017301845 0.017260332 0.01979643 -0.022362102 0.0057781767 0.028572956 0.032972645 -0.0150436275
0.045730468 -0.069244295 0.016236434 0.0077128103 0.010494288 -0.026997559 0.027804358 0.0129086645
0.009523521 -0.037113085 -0.014199297 -0.045284048 -0.011925703 0.057597242 -0.0129697 -0.008243439
0.021510284 0.0156285 0.024727 -0.010899692 0.025652805 0.046450518 -0.004263944 -0.016858071
-0.021975288 -0.030818604 0.012319931 -0.022966981 -0.008932651 0.010248357 -0.019789198 -0.012070379
-0.021433372 -0.015133587 -0.011171877 -0.027077785 0.0052224407 0.023036534 -0.042093642 -0.0020996481
-0.003259722 0.022948602 -0.016681964 -0.03503266 0.004969564 0.0007767852 -0.003870137 0.06189298
0.04337809 0.0030710557 -0.024154695 0.020655636 0.0045502754 0.0073879315 -0.0010728885 0.011095424
-0.0059278365 -0.028938796 0.0038076611 -0.0396655 -0.03952675 -0.04934098 0.050921775 0.036548886
0.034868382 0.092867 -0.04533504 0.058115214 0.014664783 -0.017191961 0.018433651 0.028882684
-0.0062327003 0.0045105587 -0.016033337 0.0033304521 -0.0285037 0.023476949 0.06898043 -0.02606575
0.023799658 -0.037595857 0.024688106 0.007629943 0.016250728 -0.15897414 -0.0070078676 -0.009163073
0.01289215 0.07345567 0.055941254 0.07106093 -0.04757261 -0.04439002 0.03551206 0.00036944024
-0.042546924 0.009079389 -0.03620892 0.038940616 -0.06376219 0.015767429 0.02175082 0.007599597
-0.007062649 -0.03144276 0.064593405 0.059181727 0.025512753 -0.17506742 0.021501495 0.017497081
-0.04613761 -0.010103638 -0.11477195 -0.041457735 -0.065314166 0.048782602 0.0039362763 0.05963348
-0.0754632 -0.06701788 -0.039583083 0.05783812 0.013410947 0.026096206 0.0051141176 -0.010952599

bias f4 [15]
00000000: c196 783f 46fb 833e 4928 193e 38af e13c
00000010: 78c5 2cbc f899 32bd df3e b3bd 9571 d6bd
00000020: 8f9b 30be 3ad6 32be 4293 63bd 4fba 19be
00000030: 70a8 26be e796 54be 8214 72be
0.9710503 0.25777644 0.14956774 0.027549371 -0.010545127 -0.043603867 -0.08752226 -0.10470883
-0.17246841 -0.17464533 -0.055560358 -0.15012477 -0.16275191 -0.2076069 -0.23640636
