Assignment 2/model_fold_4.pth (torch, 25398 bytes, 2 tensors)

linear.weight f4 [15, 396]
0	0xbdc738d3	-0.09727635
1	0x3d88d9f8	0.06682199
2	0x3daa80ce	0.08325349
3	0x3c87cdd3	0.016577637
4	0x3dd51098	0.10403556
5	0x3e08bbd4	0.133529
6	0x3e51f025	0.20501764
7	0xbdd799a9	-0.10527355
8	0x3e66c416	0.22535738
9	0xbd6505cd	-0.055913735
10	0x3e36ef30	0.1786468
11	0x3d8f4b38	0.06996769
12	0xbe8b752a	-0.27237827
13	0x3d51deb1	0.051237766
14	0xbd48dcbf	-0.049038645
15	0x3dae85a8	0.08521587
16	0xbdee4364	-0.116339475
17	0x3e055b66	0.13023147
18	0x3e3ae038	0.18249595
19	0x3e542d12	0.20720318
20	0xbe1521be	-0.14563653
21	0xbd62a010	-0.05532843
22	0x3e559b68	0.20860064
23	0xbce6d4cc	-0.028177641
24	0x3dc2ea50	0.09517348
25	0x3f080f2b	0.53148144
26	0x3e51254c	0.20424384
27	0x3e21a4b7	0.1578549
28	0xbea6b2f8	-0.32558417
29	0xbde894ec	-0.113565296
30	0xbe442b89	-0.19157232
31	0x3d540098	0.05175838
32	0x3de4dfb5	0.11175481
33	0x3dd5076d	0.10401807
34	0x3dcaa631	0.0989498
35	0x3d2eb182	0.042649753
36	0x3e04404e	0.12915155
37	0xbc5e3006	-0.013561254
38	0x3e47b956	0.19504294
39	0x3c88ec4d	0.01671424
40	0x3e8e834b	0.27834544
41	0x3dfa3d42	0.12218715
42	0x3e1c868a	0.15285698
43	0xbcf73f7c	-0.030181639
44	0xbdd1d774	-0.102461725
45	0x3d9cb5e3	0.0765188
46	0x3d871472	0.065956965
47	0x3c6a46ba	0.014299089
48	0x3d7b43fd	0.061344136
49	0x3d80f8c1	0.06297446
50	0x3cab47fb	0.020908346
51	0xbd338ffe	-0.043838494
52	0x3e0ff867	0.14059602
53	0xbd8b88e2	-0.06813218
54	0x3bccba11	0.006247767
55	0x3de135f3	0.10996618
56	0x3dedf743	0.11619427
57	0x3d862ebe	0.06551884
58	0x3b733e86	0.0037116124
59	0xbea6cba8	-0.32577252
60	0xbf7c4325	-0.98539954
61	0x3dda29ee	0.10652529
62	0x3bcdb003	0.0062770857
63	0xbe24e1f7	-0.16101824
64	0x3d70ed00	0.05881977
65	0xbdc7179f	-0.09721302
66	0x3c60bf63	0.013717505
67	0xbcb38205	-0.021912584
68	0x3e025e51	0.12731291
69	0x3da8c52c	0.082407326
70	0x3c33be9e	0.01097074
71	0x3d034f39	0.032057974
72	0x3cfad066	0.03061695
73	0xbb7bbb88	-0.0038411338
74	0xbde2cf06	-0.11074643
75	0xbdbbd435	-0.09171335
76	0x3dac2ee7	0.084073834
77	0x3cd5670b	0.026050111
78	0x3cef449c	0.02920752
79	0x3b2b28fc	0.0026116958
80	0x3cb77e9c	0.02239924
81	0xbd510524	-0.051030293
82	0x3cb245ff	0.021761892
83	0x3e001e8a	0.1251165
84	0x3ceb6eb5	0.028739313
85	0xbd60a423	-0.054844033
86	0xbdd61e8b	-0.10455044
87	0x3d637f1a	0.055541135
88	0xbb8cef65	-0.004300999
89	0xbe2aa43f	-0.16664217
90	0xbeaeb0af	-0.34119174
91	0x3e12161d	0.14266248
92	0xbdd48827	-0.103775315
93	0x3d26af0b	0.040694278
94	0x3db64c89	0.08901317
95	0xbd590ded	-0.052991796
96	0x3dbcb4cc	0.09214172
97	0x3c57c117	0.013168595
98	0xbc41f51f	-0.011838227
99	0xbe3361b2	-0.17517737
100	0x3dfdcc1b	0.12392446
101	0x3d2f97f2	0.042869516
102	0x3d7ea824	0.06217207
103	0x3da516d3	0.08060994
104	0xbd9f3e55	-0.07775561
105	0xbddefef8	-0.10888475
106	0x3c7f87f4	0.015596379
107	0x3dc0db62	0.09416844
108	0x3d195d49	0.03744248
109	0x3cee6ef6	0.029105645
110	0x3d83fcad	0.064446785
111	0x3c518ab3	0.012789416
112	0xbc8d5bb6	-0.017255645
113	0x3d332e20	0.04374516
114	0x3d8f9fa8	0.07012874
115	0xbd60ca0b	-0.054880183
116	0x3d088770	0.03333229
117	0x3da07b93	0.0783607
118	0x3d7f80ca	0.062378682
119	0x3db3c047	0.08776908
120	0xbc8fc638	-0.017550573
121	0x3d8987ae	0.06715332
122	0xbb493505	-0.0030701768
123	0x3ced0794	0.028934278
124	0x3bac3b34	0.005256081
125	0xbd3ddc3d	-0.046352614
126	0x3dbda48c	0.092599005
127	0xbe17c22c	-0.14820164
128	0x3e519ded	0.204704
129	0xbd83fd44	-0.06444791
130	0x3d4eec85	0.05051853
131	0x3da9561d	0.08268378
132	0x3d75ff95	0.060058195
133	0xbda67d96	-0.08129422
134	0x3dccebad	0.10005889
135	0x3e01a3cc	0.1266014
136	0x3d9fbe8a	0.07800014
137	0xbcdf9d77	-0.027296765
138	0x3c0c0861	0.00854692
139	0xbdfd2b89	-0.12361819
140	0xbd175f12	-0.0369559
141	0x3d0cb248	0.03434971
142	0x3b4dcb09	0.0031401536
143	0xbadbebe8	-0.001677868
144	0x3d740b01	0.059580807
145	0x3d7b3c37	0.061336722
146	0x3d53fc5a	0.051754333
147	0xbde43697	-0.11143225
148	0xba560148	-0.0008163643
149	0x3e077f2e	0.13232109
150	0x3c548af7	0.012972585
151	0xbd366da0	-0.04453814
152	0xbab85bfe	-0.0014065502
153	0xbd24fac6	-0.04027822
154	0x3d9e1659	0.07719106
155	0xbdfe24d4	-0.12409368
156	0x3c01da71	0.007925616
157	0x3e1b09cc	0.15140456
158	0xbdb2adf6	-0.08724587
159	0xbd3d57d0	-0.046226323
160	0xbc7becd6	-0.01537629
161	0xbd2ea251	-0.042635266
162	0xbb901559	-0.004397076
163	0xbceb080a	-0.028690357
164	0x3c3138a7	0.01081673
165	0x3d7f74b8	0.06236717
166	0xbdf2821f	-0.11841225
167	0x3deabc62	0.114617124
168	0x3d1e0657	0.038580265
169	0x3df20feb	0.11819442
170	0x3d943530	0.07236707
171	0xbe278ffe	-0.16363522
172	0x3d2253ce	0.039630704
173	0xbbe322df	-0.006931647
174	0x3b38e569	0.002821291
175	0x3dc1e205	0.09466938
176	0x3d8db240	0.06918764
177	0xbd9cf151	-0.07663215
178	0xbda82bec	-0.082115024
179	0x3d537e46	0.051634096
180	0x3d15befe	0.036559097
181	0xbdc83d30	-0.097772956
182	0x3d809afa	0.062795594
183	0x3c67d250	0.0141492635
184	0xbca4092a	-0.020023901
185	0xbc76ab6c	-0.015055519
186	0xbd29c151	-0.041444127
187	0xbdf9170e	-0.121626005
188	0x3c0571de	0.008144824
189	0xbe3b844b	-0.18312185
190	0x3debd4ec	0.11515221
191	0x3d9d21dd	0.076724745
192	0xbb85084f	-0.0040598284
193	0x3e19c477	0.15016352
194	0xbc075c74	-0.008261789
195	0x3e5d1102	0.21588519
196	0x3dc1001b	0.09423848
197	0xbc170a2d	-0.009218735
198	0x3db97ce6	0.090570256
199	0xbcb4ea6a	-0.022084434
200	0x3d999387	0.07498842
201	0xbd830f1d	-0.06399367
202	0x3d068bf1	0.032848302
203	0x3dda3b3b	0.106558286
204	0xbde82657	-0.11335438
205	0x3d833b6f	0.064078204
206	0x3e446f9a	0.19183198
207	0xbd293692	-0.041311808
208	0x3d6c580e	0.057701163
209	0xbd206ff3	-0.039169263
210	0x3d0fe406	0.03512957
211	0x3d760fec	0.060073778
212	0x3cc6dd6b	0.024275502
213	0xbebd7701	-0.37004855
214	0xbc40d4e7	-0.01176951
215	0x3d7b2b8b	0.061320823
216	0xbe1f8984	-0.15579802
217	0x3e6684b7	0.22511564
218	0xbd85f281	-0.065403946
219	0x3e725561	0.23665382
220	0xbdfc91d0	-0.12332499
221	0xbd82cb2f	-0.063864104
222	0x3d373e19	0.044736955
223	0xbcc13f7f	-0.023589848
224	0xbd31e433	-0.04343052
225	0x3ddad950	0.1068598
226	0xbd7b3e41	-0.061338667
227	0x3e107fb0	0.14111209
228	0xbdd2666a	-0.1027344
229	0x3cf37fb2	0.029723976
230	0x3c84ab7f	0.016195057
231	0x3b0f16ee	0.0021833736
232	0xbd2bdb33	-0.04195709
233	0xbc64fdbd	-0.013976512
234	0x3e04159e	0.12898871
235	0x3cc10930	0.023563951
236	0x3c62b7fc	0.013837811
237	0xbe4b5e5b	-0.19860213
238	0x3d284909	0.041085277
239	0xbd0ba103	-0.0340891
240	0xbd8032a8	-0.06259662
241	0x3d09d000	0.03364563
242	0xbe2008b7	-0.15628324
243	0x3c94b80f	0.018154172
244	0xbe40dba0	-0.1883378
245	0x3df820c2	0.12115623
246	0x3dcca992	0.099932805
247	0x3df1adad	0.11800704
248	0xbe90f7ec	-0.2831415
249	0xbe800da7	-0.25010416
250	0xbe1db5c6	-0.15401372
251	0x3dfb0161	0.122561224
252	0xba05207b	-0.00050783873
253	0x3dfb6825	0.12275723
254	0xbd18984e	-0.037254624
255	0xbd3136d6	-0.043265186

linear.bias f4 [15]
0	0x4040472a	3.0043435
1	0x3fb63c2f	1.4237117
2	0x3fad4597	1.3536862
3	0x3f4b9b90	0.79534245
4	0x3f1a8794	0.60363126
5	0x3ea75c66	0.32687682
6	0xbdbdc82a	-0.09266694
7	0xbea6ce51	-0.32579282
8	0xbf18d196	-0.596948
9	0xbf59990f	-0.84999174
10	0xbeb52a6d	-0.3538393
11	0xbf82155c	-1.0162768
12	0xbfba7064	-1.4565549
13	0xbfcb24aa	-1.5870564
14	0xbfbb63d6	-1.4639843
