Assignment 2/model_fold_1.pth (torch, 25398 bytes, 2 tensors)

linear.weight f4 [15, 396]
0	0xbded7dba	-0.11596246
1	0x3d868012	0.06567396
2	0x3e080510	0.13283181
3	0x3dc94c81	0.09829045
4	0x3ddb569b	0.10709878
5	0x3dab006e	0.08349691
6	0x3e3101db	0.17285864
7	0xbe6c1940	-0.23056507
8	0x3e354e81	0.17705728
9	0xbe05a3b2	-0.13050726
10	0x3e3cb93d	0.18430038
11	0x3dbe735a	0.09299345
12	0xbe39f548	-0.18159974
13	0x3dfb11d7	0.12259262
14	0xbc3cf276	-0.011532417
15	0x3dfd4fda	0.12368746
16	0xbdb98c3c	-0.09059951
17	0x3dddb8ac	0.10826239
18	0x3e2ce8bf	0.1688566
19	0x3e5e56c1	0.21712781
20	0xbe332683	-0.1749516
21	0xbd56b617	-0.05241975
22	0x3e5cf8a4	0.21579224
23	0xbd56d809	-0.05245212
24	0x3da8897a	0.082293466
25	0x3efe1610	0.49626207
26	0x3e57b0e6	0.21063575
27	0x3e0d52bc	0.13801092
28	0xbe36a566	-0.17836532
29	0xbe37f543	-0.17964654
30	0xbe391ed8	-0.18078172
31	0x3cb9dfaf	0.022689668
32	0x3e2e672d	0.17031546
33	0x3db1746e	0.08664785
34	0x3de2ee8c	0.110806555
35	0x3d2dda72	0.042444654
36	0x3dfbb488	0.12290293
37	0xbc4fd974	-0.012686122
38	0x3e5e3333	0.21699218
39	0x3beb54a1	0.0071817194
40	0x3e6e027f	0.2324314
41	0x3d97f845	0.074204005
42	0x3e30ab51	0.17252852
43	0xbdd7841e	-0.10523246
44	0xbd9ace09	-0.07558829
45	0xbcad3316	-0.021142524
46	0x3d1ef44b	0.038807195
47	0x3d04557b	0.032308083
48	0x3c8c6ac4	0.017140754
49	0x3d2abee1	0.041685943
50	0xbcfa8dd3	-0.030585205
51	0xbda80169	-0.08203394
52	0x3e5e288a	0.21695152
53	0xbd0658f1	-0.032799665
54	0x3c385044	0.011249606
55	0x3e06a0a5	0.13147219
56	0x3d680978	0.056649655
57	0x3db5e0db	0.088807784
58	0xbced9479	-0.029001461
59	0xbeaf99e5	-0.342971
60	0xbf81b7d0	-1.013422
61	0x3e0458f9	0.12924565
62	0x3d9f3028	0.07772857
63	0xbe471857	-0.19442879
64	0xbcf13643	-0.02944482
65	0xbd07be23	-0.033140313
66	0xbcdbd991	-0.026837142
67	0xbd8ace88	-0.06777674
68	0x3db1010a	0.08642776
69	0x3e18ca1e	0.14920852
70	0xbd4d34d8	-0.050099224
71	0xbd973b00	-0.073843
72	0x3bf92c6c	0.0076041725
73	0xbcab5a11	-0.02091697
74	0xbe130025	-0.14355524
75	0xbcad1ef5	-0.021132926
76	0x3da88a31	0.08229483
77	0x3b14530c	0.0022632508
78	0xbc1bc582	-0.009507539
79	0x3d784a49	0.06061772
80	0x3c7d695c	0.015467014
81	0xbdb4c623	-0.08826854
82	0x3d6f35a6	0.058400773
83	0x3ddff212	0.10934843
84	0xbc9eaf0f	-0.019370584
85	0xbd335791	-0.04378468
86	0xbd07faa1	-0.033198003
87	0x3d7bde6c	0.061491415
88	0xbd3075be	-0.043081038
89	0xbe20d568	-0.15706408
90	0xbe9ce753	-0.30645236
91	0x3e4145e8	0.18874323
92	0xbe2b63d8	-0.16737306
93	0x3d9e9c80	0.07744694
94	0x3dca7293	0.098851345
95	0xbc0de144	-0.008659665
96	0x3dab95cd	0.083781816
97	0x3db36604	0.08759692
98	0xbd976b4c	-0.07393512
99	0xbe2ec205	-0.170662
100	0x3dc4fb86	0.09618287
101	0x3ceead09	0.029135244
102	0x3e073284	0.13202864
103	0x3db737bf	0.089461796
104	0xbd890b3b	-0.06691595
105	0xbdcaeffd	-0.099090554
106	0x3db7509d	0.08950923
107	0x3d9abbea	0.07555373
108	0x3d8db6a5	0.06919602
109	0xbd0006bb	-0.03125642
110	0x3ddb0da5	0.10695962
111	0x3bed525e	0.007242485
112	0xbd45f889	-0.048332725
113	0xbb47598c	-0.0030418364
114	0x3d9d1774	0.07670489
115	0xbd24e2cd	-0.040255357
116	0x3d5d463f	0.05402207
117	0x3d911294	0.070836216
118	0x3caa551e	0.02079254
119	0x3e016df1	0.12639596
120	0xbd400ea0	-0.046888947
121	0x3d061608	0.032735854
122	0x3ccac3f2	0.024751637
123	0xbc79e9a6	-0.01525346
124	0x3cee1428	0.029062346
125	0x3da85339	0.082189985
126	0x3dc2ea2f	0.09517323
127	0x3d63afe4	0.055587664
128	0x3e4ff89f	0.20309685
129	0xbdf000d2	-0.117189065
130	0x3d0d8e13	0.03455932
131	0x3d018c57	0.03162798
132	0x3db01d53	0.08599343
133	0xbe3163c5	-0.17323215
134	0x3db16df0	0.08663547
135	0x3dd93257	0.10605305
136	0x3dc02127	0.09381323
137	0xbdacb66b	-0.08433231
138	0x3d81e882	0.063431755
139	0xbe2cb40b	-0.16865556
140	0xbd31cf4e	-0.04341059
141	0x3da8b704	0.082380325
142	0x3cc4fe6b	0.024047097
143	0x3de6fbbd	0.11278484
144	0x3d61cd53	0.055127453
145	0x3d8634a7	0.065530114
146	0x3d550071	0.052002374
147	0xbce4f18d	-0.027947212
148	0xbc3d2b28	-0.011545934
149	0x3daea241	0.08527041
150	0x3cf70b43	0.030156737
151	0xbcd794f5	-0.026316145
152	0x3ce2a4e9	0.027666526
153	0x3ca26c5f	0.019827066
154	0xbc784f62	-0.015155645
155	0xb84b0000	-4.839897e-05
156	0xbd009620	-0.03139317
157	0x3e249770	0.16073394
158	0xbddd46ae	-0.10804497
159	0xbd0bbbec	-0.034114763
160	0x3c73b245	0.014874046
161	0xbd6d0ec0	-0.057875395
162	0x3c3f8321	0.011688978
163	0xbd294acc	-0.041331097
164	0x3c33c208	0.010971554
165	0x3dbc0c25	0.09182004
166	0xbe0c97a8	-0.13729727
167	0x3d9fff26	0.078123376
168	0x3d081864	0.033226386
169	0x3da89ecc	0.08233413
170	0x3d1e7aca	0.03869132
171	0xbdb1a20a	-0.086734846
172	0x3d1b214a	0.037873544
173	0x3b6e76ef	0.0036386808
174	0xbb1cadd3	-0.0023907318
175	0x3d251358	0.04030165
176	0x3d454390	0.048160136
177	0x3c7764c8	0.015099712
178	0xbcc3e295	-0.023911754
179	0x3d82e50a	0.06391342
180	0x3c99a8b9	0.018757211
181	0xb99cd764	-0.00029915117
182	0x3cd129bb	0.025532594
183	0x3bc110bc	0.0058918875
184	0xbd24edbf	-0.040265795
185	0x3be6300b	0.00702477
186	0xbce0b821	-0.02743155
187	0xbda45b79	-0.080252595
188	0xb9e29ce8	-0.00043222983
189	0xbd9951c2	-0.07486297
190	0x3deecd8c	0.11660299
191	0x3df828cd	0.12117157
192	0x3cfaad10	0.0306001
193	0x3ddd4870	0.10804832
194	0x3c39d492	0.011342185
195	0x3e412416	0.18861422
196	0x3cce99cc	0.02521982
197	0xbbedf208	-0.0072615184
198	0x3dfbac60	0.12288737
199	0xbc0cb633	-0.008588362
200	0x3e04df7d	0.12975879
201	0x3d55b785	0.05217697
202	0xbce732c1	-0.028222444
203	0x3d6286c6	0.05530431
204	0xbda48d68	-0.080347836
205	0x3df2349a	0.11826439
206	0x3e753699	0.23946609
207	0xbd8b56e5	-0.06803683
208	0x3cab16c6	0.020884883
209	0x3ccc2a89	0.024922626
210	0x3b970511	0.0046087583
211	0x3d4995cb	0.04921512
212	0x3dcba05b	0.09942695
213	0xbeb9c6d3	-0.36284503
214	0x3cd68355	0.02618567
215	0x3dcdbfa1	0.10046316
216	0xbd83419b	-0.064089976
217	0x3e371a71	0.1788118
218	0x3d151e63	0.036405932
219	0x3e5d7553	0.21626787
220	0xbdf3c193	-0.11902156
221	0xbcebb016	-0.028770488
222	0x3c1bf1c7	0.009518093
223	0xbcbd69b8	-0.0231217
224	0xbcfc91f6	-0.030831318
225	0x3d927dff	0.07152938
226	0xbd7866ca	-0.060644902
227	0x3dbd55e9	0.09244902
228	0xbd9cd348	-0.07657486
229	0xbbfa9100	-0.00764668
230	0xbcab9415	-0.020944634
231	0x3d20f502	0.039296158
232	0xbd028926	-0.031869076
233	0xbd904e28	-0.07046157
234	0x3e093b42	0.13401511
235	0x3d54f407	0.051990535
236	0xba3de1f4	-0.00072434475
237	0xbe6cff91	-0.23144366
238	0x3d24d48c	0.040241763
239	0xbcbf4a84	-0.023350962
240	0xbe459101	-0.19293596
241	0x3ceb612e	0.028732862
242	0xbe4659ab	-0.19370143
243	0xbba63717	-0.005072485
244	0xbe185f20	-0.14880037
245	0x3dda7d30	0.10668409
246	0xbd0a5026	-0.03376784
247	0x3d8fe907	0.07026868
248	0xbe805a0e	-0.25068706
249	0xbe617eb3	-0.22020988
250	0xbdf39bf6	-0.118949816
251	0x3dcd78f0	0.100328326
252	0x3cd0051f	0.025393067
253	0x3dc5e7dd	0.09663365
254	0x3d071347	0.03297737
255	0xbcc91b35	-0.024549106

linear.bias f4 [15]
0	0x4043ab83	3.0573432
1	0x3fc8efa7	1.5698136
2	0x3faa0998	1.3284178
3	0x3f20c1fe	0.6279601
4	0x3f06280a	0.52404845
5	0x3e0c8799	0.13723601
6	0xbd9feb21	-0.07808519
7	0xbe1c07a2	-0.15237287
8	0xbf3df415	-0.74200565
9	0xbf5088cc	-0.81458735
10	0xbe092307	-0.13392268
11	0xbf841761	-1.0319635
12	0xbfb88fa3	-1.4418834
13	0xbfc0a751	-1.5051061
14	0xbfb99c8f	-1.4500903
