Assignment 2/model_fold_0.pth (torch, 25398 bytes, 2 tensors)

linear.weight f4 [15, 396]
0	0xbd83f3bd	-0.06442974
1	0x3df3f38d	0.11911688
2	0x3e0cd540	0.13753223
3	0xbe12f693	-0.14351873
4	0x3dbc2d0b	0.09188279
5	0x3db37acf	0.08763658
6	0x3e3b54ef	0.18294118
7	0xbe7ce15c	-0.24695343
8	0x3e260160	0.16211462
9	0xbd99d1e5	-0.07510737
10	0x3e0f3719	0.13985862
11	0x3dda7abd	0.10667942
12	0xbe04241e	-0.12904403
13	0x3da63ce0	0.0811708
14	0xbcdf29a1	-0.02724153
15	0x3df0db29	0.117605515
16	0xbd001cfe	-0.03127765
17	0x3dd0b9b8	0.10191673
18	0x3e53f8f5	0.20700438
19	0x3e6794f3	0.22615413
20	0xbe21a31c	-0.15784878
21	0xbd3a72ac	-0.045519516
22	0x3e9520eb	0.29126677
23	0x3c98e6e7	0.01866479
24	0x3e159e0b	0.1461107
25	0x3efb2810	0.49054003
26	0x3e75e849	0.24014391
27	0x3ddc9f47	0.10772567
28	0xbdfea185	-0.12433151
29	0xbe1e201e	-0.15441939
30	0xbe233596	-0.1593841
31	0x3da88a1a	0.08229466
32	0x3dee8c89	0.11647899
33	0x3db4d3b4	0.08829442
34	0x3da5249d	0.08063624
35	0x3d62a089	0.05532888
36	0x3d9a8bac	0.075461715
37	0x3d5655c7	0.052327897
38	0x3e7dc712	0.2478297
39	0x3d1a5c7e	0.037685864
40	0x3e900430	0.28128195
41	0x3e1b3f5d	0.1516089
42	0x3e6def79	0.23235883
43	0xbd7367ea	-0.059425272
44	0xbdd5df11	-0.10442937
45	0x3c9952db	0.018716266
46	0x3db167c3	0.08662369
47	0x3cac7c7f	0.021055458
48	0x3ce505d8	0.027956888
49	0x3d503bdc	0.050838336
50	0x3d6f9564	0.05849208
51	0xbc9da7f4	-0.019245125
52	0x3e3581c3	0.17725281
53	0x3c9de0e0	0.019272268
54	0x3c65bee8	0.014022566
55	0x3e10147c	0.14070314
56	0x3d9f26fe	0.07771109
57	0x3def78f9	0.116929956
58	0x3c97fa8f	0.018552093
59	0xbf000eba	-0.5002247
60	0xbf82f2ff	-1.0230407
61	0x3e10b579	0.14131726
62	0x3d418448	0.047245294
63	0xbe26ac40	-0.16276646
64	0xbd18f5b3	-0.037343692
65	0xbc80ebfd	-0.015737528
66	0xbd57ca3e	-0.052683108
67	0xbd96aa11	-0.07356656
68	0x3df705a1	0.120616205
69	0x3e382ec5	0.17986591
70	0xbd03bb05	-0.032160778
71	0xbc0ae672	-0.008477794
72	0xba1a32d8	-0.000588221
73	0xbc4b97a0	-0.012426287
74	0xbd2d28ab	-0.042275112
75	0xbd696e4a	-0.056989945
76	0x3dc7443f	0.09729814
77	0x3bb28caf	0.0054488997
78	0xbc433ff4	-0.011917103
79	0x3d4dec4c	0.05027418
80	0xbcf04392	-0.029329095
81	0xbd0d63aa	-0.034518875
82	0x3cd2446d	0.025667394
83	0x3d25ac03	0.040447246
84	0x3c1b1eb6	0.009467771
85	0xbd9d2042	-0.07672168
86	0xbced19c0	-0.028942943
87	0x3d823ae0	0.06358886
88	0xbd05d70a	-0.03267578
89	0xbe1eda92	-0.15513065
90	0xbeaa9f82	-0.3332482
91	0x3e38282c	0.17984074
92	0xbe0d265b	-0.13784163
93	0x3da70dc3	0.08156922
94	0x3dc3fef3	0.09570112
95	0xbd8a12fa	-0.06741901
96	0x3dbbfb84	0.09178832
97	0x3d4f5870	0.05062145
98	0xbc8a11f2	-0.01685426
99	0xbe070b7b	-0.13187973
100	0x3d8f9f41	0.07012797
101	0x3b93e116	0.0045129163
102	0x3caf8d89	0.021429794
103	0x3da568ae	0.08076607
104	0xbdf88a0d	-0.12135706
105	0xbde3d0bc	-0.11123797
106	0x3de96fac	0.11398253
107	0x3d8d57bd	0.069015004
108	0x3d9fb897	0.077988796
109	0x3ce9e6bf	0.028552411
110	0x3d3dfdb6	0.046384536
111	0x3cda95a0	0.026682675
112	0xbd57ef72	-0.052718587
113	0xbdcea05e	-0.10089181
114	0x3dc27312	0.09494604
115	0xbc8a20b2	-0.016861293
116	0x3d185416	0.037189566
117	0x3da3179b	0.07963487
118	0x3d07480c	0.033027694
119	0x3de8e74a	0.1137224
120	0x35bc6240	1.4035686e-06
121	0x3dff8294	0.12476078
122	0xbd5b12c8	-0.053484708
123	0xbc130bf9	-0.0089750225
124	0x3d3768c9	0.044777665
125	0x3d510f45	0.051039953
126	0x3d6fbc11	0.058528963
127	0x3d4325f8	0.04764363
128	0x3e09e9c0	0.13468075
129	0xbdcf2088	-0.10113627
130	0xbd00a3a4	-0.03140606
131	0x3d44ede4	0.048078433
132	0x3dcc4cb7	0.0997557
133	0xbde6cae3	-0.11269166
134	0x3dd4efb2	0.10397281
135	0x3d4f2d59	0.050580356
136	0x3d1c8fee	0.0382232
137	0xbd35cd3d	-0.044385184
138	0x3d10ec93	0.035381865
139	0xbe185759	-0.1487707
140	0xbd647346	-0.055773996
141	0x3df1d383	0.11807921
142	0x3dec92b4	0.11551419
143	0x3cc390bf	0.023872731
144	0xbcbc9733	-0.023021316
145	0x3d7bc672	0.06146855
146	0x3d50d75e	0.05098664
147	0xbc9c8333	-0.01910553
148	0x3bfc089a	0.007691455
149	0x3cbeb513	0.023279702
150	0x3dfe8b12	0.12428869
151	0xbdcbb908	-0.09947401
152	0xbd34acb8	-0.04411003
153	0xbd6a9031	-0.057266418
154	0x3d56e4f5	0.052464444
155	0xbd953773	-0.07285967
156	0xbca8e82e	-0.020618524
157	0xbc72e65a	-0.014825428
158	0xbde9f6eb	-0.11424049
159	0xba0a25ea	-0.0005269932
160	0x3c1bbd8f	0.0095056435
161	0xbce0a3b3	-0.027421808
162	0x3d129622	0.03578771
163	0x3bf27298	0.0073989145
164	0xbb5061d6	-0.0031796596
165	0x3dffdcd6	0.12493293
166	0xbdb22530	-0.08698499
167	0x3d054f65	0.03254642
168	0x3d6891b3	0.056779575
169	0x3da32334	0.07965699
170	0x3da7e939	0.081987806
171	0xbcce9d9e	-0.025221642
172	0xbc13dd72	-0.009024965
173	0x3ccd0687	0.025027527
174	0x3cc6b184	0.024254568
175	0x3d95e581	0.07319165
176	0x3d507ff3	0.050903272
177	0x3ce77512	0.028254066
178	0xbda7ff67	-0.08203011
179	0x3db7aed7	0.08968895
180	0xbad690fd	-0.0016370114
181	0x3d5a847c	0.053349003
182	0xbbdb7373	-0.006697112
183	0xbc8510d5	-0.016243378
184	0xbcaacb60	-0.02084893
185	0x3cdc62ad	0.026902521
186	0x3d928822	0.071548715
187	0xbdbaa8f0	-0.091142535
188	0xbd672319	-0.056429956
189	0xbdd95446	-0.10611777
190	0x3e4b03c4	0.19825655
191	0x3e2c25fe	0.16811368
192	0x3e063563	0.13106303
193	0x3e1b5311	0.15168406
194	0x3db76e0b	0.08956536
195	0x3e799b26	0.2437559
196	0x3c9376dc	0.018001013
197	0x3abce627	0.0014411852
198	0x3e02b89a	0.12765732
199	0xbd9c0272	-0.07617654
200	0x3c94fa17	0.018185658
201	0x3d9350cf	0.071931474
202	0xbd538813	-0.051643442
203	0x3d26df38	0.04074022
204	0xbd8726f2	-0.06599225
205	0x3d98f4a1	0.07468534
206	0x3e0cdea3	0.13756804
207	0xbdaafe91	-0.08349336
208	0xbc8f0e75	-0.017462948
209	0xbc8822ca	-0.016618151
210	0x3d86a50e	0.065744504
211	0x3d43be85	0.047789115
212	0x3d98cc10	0.07460797
213	0xbeb619d4	-0.3556658
214	0x3ca6061d	0.020266587
215	0x3da373f3	0.079811
216	0xbd2bb878	-0.04192397
217	0x3e4e7848	0.20163071
218	0x3cecf2ae	0.028924312
219	0x3e5aa4b3	0.2135189
220	0xbdf91cf4	-0.121637255
221	0xbd8cb946	-0.068712756
222	0xbcac0c42	-0.021001939
223	0x3ba0edbd	0.004911153
224	0x3adf58e9	0.0017040047
225	0x3dee6489	0.11640269
226	0xbca4c612	-0.020113979
227	0x3d9f951a	0.07792111
228	0xbdcd1262	-0.10013272
229	0x3cf0c20b	0.029389402
230	0x3ce9fc63	0.02856273
231	0x3d541c06	0.051784538
232	0xbd50bedf	-0.05096328
233	0xbd100bc9	-0.03516749
234	0x3e0b7c55	0.13621648
235	0x3cf44105	0.02981616
236	0x3d2d2927	0.042275574
237	0xbe81d1e9	-0.2535546
238	0x3c594334	0.013260651
239	0xbcf46aeb	-0.029836139
240	0xbdd5afc4	-0.10433915
241	0x3d89ca09	0.06727988
242	0xbe48e214	-0.19617492
243	0xbb9dfdbb	-0.004821507
244	0xbe15a055	-0.14611943
245	0x3e17a57b	0.1480922
246	0x39c22420	0.0003702948
247	0x3dbcd4e2	0.09220292
248	0xbe452ad1	-0.19254614
249	0xbe7fa18a	-0.24963966
250	0xbdf38de1	-0.11892296
251	0x3e04acb3	0.12956505
252	0x3d245aea	0.040125765
253	0x3c2a254a	0.010384867
254	0xbd85d9a7	-0.065356545
255	0xbd0042db	-0.03131376

linear.bias f4 [15]
0	0x4040858e	3.0081515
1	0x3fbc60c7	1.4717034
2	0x3faeefec	1.3666968
3	0x3f5c11b4	0.8596451
4	0x3f28f5cc	0.66000056
5	0x3e0ae501	0.1356392
6	0xbe6d78ba	-0.23190585
7	0xbe68d688	-0.22738087
8	0xbf2774fb	-0.65412873
9	0xbf597235	-0.8493989
10	0xbe65ddcd	-0.22447892
11	0xbf8260ea	-1.0185826
12	0xbfadfc3a	-1.3592598
13	0xbfc1105d	-1.5083119
14	0xbfb15a33	-1.3855652
