Assignment 2/model_fold_4.pth (torch, 25398 bytes, 2 tensors)

linear.weight f4 [15, 396]
-0.14428769 0.11442657 0.056235876 -0.14919609 0.100865744 0.12423138 0.20226228 -0.081694305
0.19316083 -0.034265537 0.14045699 0.15165974 -0.21507294 0.028028054 -0.06686798 0.09513736
-0.07208654 0.11131609 0.20689496 0.17842637 -0.16986662 -0.35940772 0.27711016 0.0089670075
0.18966427 0.52065146 0.26001114 0.16667956 -0.11220429 -0.12886773 -0.12503898 0.06409708
0.085014075 0.096391685 0.050480727 0.015243008 0.084138654 0.032646574 0.20934887 -0.007228115
0.36514598 0.124542065 0.22344737 -0.047314703 -0.07396019 0.07125412 0.08636436 0.009950474
-0.04981374 0.07600716 0.0031560855 -0.048120316 0.17888911 0.0069582965 0.018294992 0.14193058
0.103505604 0.09174991 -0.007729711 -0.49601573 -1.0218728 0.11916955 0.016825842 -0.12486088
0.027206387 -0.06581777 -0.057293527 -0.030750187 0.10976913 0.14860906 -0.043034013 0.022410152
0.027173258 0.016052533 -0.1098068 -0.0017634608 0.119448505 0.0057914155 0.018136483 0.0129239755
0.0040217605 -0.061849892 0.06796347 0.109843485 0.028470946 -0.054414812 -0.062423564 -0.016059993
-0.074731804 -0.12723427 -0.24316922 0.20171376 -0.022659104 0.05767928 0.050145183 -0.04830675
0.056267 0.041271035 -0.0014150386 -0.1644912 0.0924504 0.04230104 0.10293404 0.08177766
-0.10736437 -0.10015265 -0.06949535 0.0869816 0.013600943 0.023866236 0.040753037 -0.02452923
0.030094093 -0.028350668 0.110286966 -0.022542853 -0.018963525 0.116035186 0.038863856 0.13870968
0.021059752 0.07784305 0.04319323 -0.09602899 0.013960085 -0.022926811 0.1271506 0.09523887
0.1797135 -0.13433866 0.030010063 0.13144691 0.074891575 -0.12669757 0.04997924 0.05321297
0.06399691 -0.03857105 0.0028319529 -0.13999085 0.03631223 0.0976266 0.065191075 0.044401787
0.020705521 0.010391093 0.049414277 -0.04304156 0.019649671 0.032288156 0.063729405 -0.090766534
0.032995902 -0.14024387 0.11734066 -0.030462742 0.047894496 0.08630778 -0.097711116 -0.009804315
0.012924549 3.28218e-05 0.03580727 0.019923648 -0.074706174 0.067289166 -0.07176577 0.018670276
0.077080674 0.06402171 0.057752997 -0.1645406 0.025908431 0.038583003 -0.040978715 0.12516096
0.0843708 0.040777117 -0.03326002 0.015173557 0.06148952 0.06305388 0.03816004 -0.031768795
-0.029530516 0.011232849 0.017018216 -0.08594208 0.02341034 -0.03442712 0.22804579 0.20830582
0.03293923 0.09764053 0.062479593 0.19683068 0.016667143 -0.053699423 0.12800592 -0.044554934
0.030662451 0.014910656 -0.015669687 0.034820464 -0.04622446 0.04877842 0.093368076 -0.061246973
0.0020277984 -0.029335406 0.05497498 0.034316577 0.02119515 -0.36215818 0.008944007 0.05667522
-0.09827586 0.25622806 -0.043380115 0.20779027 -0.11015389 -0.052572194 -0.0021959562 -0.011537161
-0.023618162 0.07924805 -0.080350354 0.05994692 -0.13335781 0.04341289 0.01236011 -0.0047735893
-0.050515566 -0.03993588 0.15943353 0.076667756 -0.004449517 -0.16514817 0.01441581 -0.025017055
-0.06979456 0.05873957 -0.18743666 -0.019436698 -0.2113681 0.06762946 0.05140393 0.10572445
-0.2944972 -0.2695515 -0.21426527 0.025668066 -0.015864914 0.027431041 -0.00973063 -0.060754377
00000000: 27c0 13be 7a58 ea3d 9757 663d dcc6 18be
00000010: b392 ce3d 066d fe3d d81d 4f3e 584f a7bd
00000020: f4cb 453e 055a 0cbd f5d3 0f3e b14c 1b3e
00000030: 153c 5cbe 179b e53c 14f2 88bd 60d7 c23d
00000040: 1ca2 93bd b1f9 e33d 46dc 533e 67b5 363e
00000050: 84f1 2dbe 4a04 b8be 62e1 8d3e 5bea 123c
00000060: 5a37 423e 6a49 053f 2e20 853e 0cae 2a3e
00000070: 5dcb e5bd e7f5 03be 380a 00be 5445 833d
00000080: dc1b ae3d 0169 c53d e1c4 4e3d cfbd 793c
00000090: e350 ac3d 6ab8 053d 8d5f 563e d3d9 ecbb
000000a0: 6af4 ba3e e90f ff3d 63cf 643e 10cd 41bd
000000b0: 7178 97bd aeed 913d ccdf b03d 5007 233c
000000c0: 7e09 4cbd a4a9 9b3d 54d6 4e3b cf19 45bd
000000d0: b52e 373e 6c02 e43b 61df 953c 4056 113e
000000e0: bffa d33d 60e7 bb3d 8449 fdbb c6f5 fdbe
000000f0: bacc 82bf 2a0f f43d 59d6 893c 10b7 ffbd
00000100: eedf de3c 78cb 86bd 9eac 6abd d1e7 fbbc
00000110: a3ce e03d f92c 183e 6f44 30bd 7f95 b73c
00000120: 749a de3c 9a80 833c 63e2 e0bd ed23 e7ba
00000130: 6ba1 f43d eac5 bd3b f692 943c 15bf 533c
00000140: f9c8 833b 5056 7dbd 6f30 8b3d 9ff5 e03d
00000150: e73b e93c 11e2 5ebd daaf 7fbd 3f90 83bc
00000160: fd0c 99bd b349 02be 5a01 79be 0d8e 4e3e
00000170: 969f b9bc 1c41 6c3d 0965 4d3d 4cdd 45bd
00000180: 3a78 663d d10b 293d d178 b9ba 6270 28be
00000190: a356 bd3d db43 2d3d 15cf d23d 0c7b a73d
000001a0: dae1 dbbd d51c cdbd 9453 8ebd 6923 b23d
000001b0: 7dd6 5e3c 2083 c33c a8ec 263d 86f1 c8bc
000001c0: e387 f63c a93f e8bc 22de e13d caab b8bc
000001d0: 6559 9bbc dba3 ed3d b52f 1f3d e909 0e3e
000001e0: 8085 ac3c 2d6c 9f3d 62eb 303d d9aa c4bd
000001f0: d7b8 643c 02d1 bbbc c433 023e 990c c33d
00000200: d106 383e 1390 09be aad7 f53c 059a 063e
00000210: c160 993d 02bd 01be 08b7 4c3d d8f5 593d
00000220: d010 833d adfc 1dbd 4998 393b c359 0fbe
00000230: 22bc 143d 74f0 c73d e682 853d a6de 353d
00000240: a09e a93c 673f 2a3c a066 4a3d 594c 30bd
00000250: 59f8 a03c 9640 043d 9084 823d cee3 b9bd
00000260: b626 073d 179c 0fbe 4d50 f03d 008d f9bc
00000270: 052d 443d 22c2 b03d c41c c8bd 47a2 20bc
00000280: 7dc1 533c 24aa 0938 a5aa 123d eb36 a33c
00000290: 8dff 98bd e7ce 893d eff9 92bd 68f2 983c
000002a0: 79dc 9d3d d01d 833d 688e 6c3d 557d 28be
000002b0: eb3d d43c 3609 1e3d 4cd9 27bd 322a 003e
000002c0: 99ca ac3d e805 273d a93b 08bd 839a 783c
000002d0: 6fdc 7b3d 6522 813d b44d 1c3d ff1f 02bd
000002e0: fbe9 f1bc fc09 383c c969 8b3c 6702 b0bd
000002f0: 0bc7 bf3c 7403 0dbd d684 693e 1f4e 553e
00000300: 49eb 063d c2f7 c73d 9aea 7f3d fb8d 493e
00000310: 8889 883c edf3 5bbd fc13 033e 3c7f 36bd
00000320: d22f fb3c d34b 743c b75d 80bc e79f 0e3d
00000330: dc55 3dbd e1cb 473d c337 bf3d 1bde 7abd
00000340: d0e4 043b ce50 f0bc 722d 613d 8a8f 0c3d
00000350: 74a1 ad3c cc6c b9be e289 123c 4724 683d
00000360: db44 c9bd 5330 833e 59af 31bd f9c6 543e
00000370: 5d98 e1bd f155 57bd 08ea 0fbb 5c06 3dbc
00000380: e07a c1bc cd4c a23d ba8e a4bd e78a 753d
00000390: f38e 08be b7d1 313d 0f82 4a3c c56b 9cbb
000003a0: 69e9 4ebd ce93 23bd 8b42 233e fc03 9d3d
000003b0: 41cd 91bb 9a1c 29be 4a30 6c3c 91f0 ccbc
000003c0: 73f0 8ebd e798 703d 65ef 3fbe b639 9fbc
000003d0: e170 58be 5081 8a3d ed8c 523d 0f86 d83d
000003e0: 56c8 96be a702 8abe 5b68 5bbe d645 d23c
000003f0: 23f7 81bc 10b7 e03c 386d 1fbc 95d9 78bd

linear.bias f4 [15]
3.0471072 1.4225367 1.4149939 0.9404612 0.5659007 0.182051 -0.16034983 -0.17102419
-0.7475217 -0.8395648 -0.32055303 -0.99082965 -1.3226582 -1.5031178 -1.4868279
00000000: ce03 4340 af15 b63f 851e b53f 11c2 703f
00000010: dede 103f 946b 3a3e bf32 24be f720 2fbe
00000020: 955d 3fbf b8ed 56bf 871f a4be 03a7 7dbf
00000030: dd4c a9bf 2a66 c0bf 6050 bebf
