Assignment 2/model_fold_4.pth (torch, 25398 bytes, 2 tensors)

linear.weight f4 [15, 396]
00000000: 0acb f0bd cba6 bb3d 3f62 1a3e f224 eb3d
00000010: fc61 6a3d ad09 c23d cde0 973e ea2f 6ebe
00000020: 5a68 273e d692 b3bd 0175 153e 2ff6 9e3d
00000030: 6cf5 1bbe 62be a93d 2084 60bd 7c95 e63c
00000040: 962a 90bd 4f47 983d d042 413e 371a 583e
00000050: e586 13be fd92 93bd b4c7 473e b926 cb3a
00000060: 7a4b d33d 8bba 063f f93a 5f3e d09c 5a3e
00000070: 5593 0cbe b8cd 2abe 7ee3 2dbe 20c5 273d
00000080: b2ba cc3d ab03 d83d 9d30 ac3d 3994 103d
00000090: e719 843d 288d f7bc cea8 2f3e 1f39 ccb9
000000a0: 3ba7 8c3e 93d9 b33d 00c1 1b3e 9746 22bd
000000b0: 00ca d7bd 4d49 f83c ee30 b73d b217 b4bb
000000c0: c709 633c 9f0f 433d 7f5e 24bc 0e7c efbc
000000d0: 2c9a 503e acca 97bc 6b5d 043d 574c d93d
000000e0: bb15 d53d cdf3 fa3d 3842 dfbc 190e c0be
000000f0: ca72 77bf af87 f43d dd0e 13bb d666 4abe
00000100: 940d fbbc cc73 81bd 76e4 ce3b 54da 8ebc
00000110: 4143 133e 0777 d73d f02f eebc ea54 fdbb
00000120: f400 b53d 2169 babc 297c 04be c64a 4bbd
00000130: 9017 ed3d e1f3 f5bc 63fb 103d 0dcf e33c
00000140: e46d 083d 403e a6bd 5a5a d33c 2a55 c83d
00000150: d2fe 8d3c cdc4 36bd 786b 0cbc 72df 5d3c
00000160: 0a08 05bd b9e1 56be 2461 9fbe eac8 1d3e
00000170: 7228 c8bd 59e4 fe3c bc2d 8d3d d43a 6dbd
00000180: 05d9 933d c8f0 4b3d a053 21bb 3ab2 27be
00000190: 905f 8f3d 7449 2c3c afae c93d f543 893d
000001a0: 2fda b5bd 61af d9bd 7593 be3d 0fa6 e13d
000001b0: b433 c53d 17b8 283d fe87 a039 c295 43bb
000001c0: 9a80 8cbc 9670 88bd 1552 f33d 4b83 42bd
000001d0: ea67 083d ddf6 993d 745e 343d 18cd af3d
000001e0: 4300 cf3b aac3 1c3e c99f 753c 9066 aabc
000001f0: 691b 573d ce85 8ebb 7495 a33d 6ae5 2cbe
00000200: 701b 513e a2ac a2bd f7a6 373d a800 c83d
00000210: fc9d 803d 7078 08be fccb 0d3e caf6 8c3d
00000220: 22d0 553d 045d c3bc 3146 333d 83e2 c1bd
00000230: fb49 76bc f343 903d b4e2 083d 1405 f43c
00000240: c25b 3cbc 1c52 563d 9dc8 5c3d 5578 e63c
00000250: 6644 7f3c c9cb c03c 1cb3 2c3d 93b0 223c
00000260: 7a19 5f3b 6c9d a3bd 3079 903d 097c 56bd
00000270: 8b4f 5e3d e631 ab3d 535d 64bd 92b1 c0bc
00000280: 7e3b 233c 2d23 66bc 9767 d538 3cd3 223b
00000290: bfba cebc 5c82 b53d dacf 17be 9f43 963d
000002a0: b745 f03c 0205 ff3d 4a7b ae3d cbb4 d0bd
000002b0: e4be 503b f448 ad3c ef6b 65bd 9ad9 cf3d
000002c0: 4058 613d d4a5 57bd d45a 50bd ace9 c63d
000002d0: 8b9a b83d 2ac3 8ebb 9ea2 673d 9a7f d0ba
000002e0: 3518 dabd 76a9 1a3d 187b 94bd d4f7 d7bd
000002f0: 974b 86bc e916 dfbd 311b 6d3e a7f5 fa3d
00000300: 6b4a 5d3d 5efb 383e 2c7c 0b3d e9bc 5f3e
00000310: ef63 963d 1e04 3cbd 8d38 5e3d e91f 24bd
00000320: 5e8b a53c 50e4 3abe 8713 f4bc dc95 4f3d
00000330: 980e 78bd 4464 b43d c972 113e bfa2 b0bd
00000340: 58d6 c43b d68b 9ebd 06ce 083e bed6 f63c
00000350: b448 853d 5422 babe d17c 223d 3696 7f3d
00000360: 19bd 93bd 286c 053e 2eb1 ca3c 845f 383e
00000370: e6a7 06be 73ae 90bd 6c57 e7bc e059 073c
00000380: 10f1 fdbc 3546 ab3d f936 31bd 1705 8b3d
00000390: 0c2c 1cbe 7c75 1c3d 5ca4 03bd 6a78 60bc
000003a0: b39c d7bc 0836 87bd 4c6b 2b3e 54d1 af3d
000003b0: 8265 b3bc e199 5cbe 6576 013d 964d e6bc
000003c0: 8d4e dbbd 46fb f03c 283a 06be c23d 52bc
000003d0: 6c7c 25be 024e ce3d b1d0 3e3a 82f1 6c3d
000003e0: ec55 88be 3e9b 4dbe 82e5 a7bd 1cf8 bc3d
000003f0: 5845 393d c4d0 ca3d 3120 16bd b12f 92bc
-0.11757477 0.091626726 0.1507654 0.11481656 0.05722235 0.09474502 0.29663697 -0.23260465
0.163484 -0.08768241 0.14595415 0.077617995 -0.1523034 0.08288266 -0.054813504 0.028147452
-0.070393726 0.07435476 0.18873143 0.2110375 -0.14406927 -0.0720577 0.19509774 0.0015499211
0.103171304 0.5262839 0.2179984 0.21348882 -0.13728078 -0.16680038 -0.16981313 0.040959477
0.09996547 0.105475746 0.0840771 0.035297606 0.06450253 -0.030218676 0.17154238 -0.0003895247
0.27471337 0.08781733 0.15210342 -0.0396181 -0.10536575 0.03030839 0.089448795 -0.0054959888
0.013857312 0.04762232 -0.010032295 -0.029233959 0.20371312 -0.018529259 0.032315653 0.10610264
0.104045354 0.122535326 -0.027253255 -0.37510756 -0.9665953 0.11939942 -0.002243928 -0.19765791
-0.030646123 -0.063209146 0.0063138558 -0.017438091 0.14381124 0.105207495 -0.029075593 -0.00773107
0.088380724 -0.022755207 -0.12937988 -0.049631856 0.1157676 -0.030023517 0.03539599 0.02780869
0.033307925 -0.08117342 0.025799919 0.09781869 0.017333422 -0.044621278 -0.008570544 0.013542043
-0.03247837 -0.20984544 -0.311288 0.15408674 -0.09773339 0.031114744 0.06893489 -0.05791743
0.072191276 0.049790174 -0.0024616495 -0.16376582 0.07000649 0.010515559 0.098477714 0.06702415
-0.08879506 -0.10629154 0.09305469 0.11018001 0.09629002 0.041191187 0.000306189 -0.0029843901
-0.017151166 -0.06662099 0.1188089 -0.047488492 0.033302225 0.075177886 0.04403539 0.085840404
0.00631717 0.15309015 0.014991709 -0.020800859 0.052516375 -0.004349447 0.0798749 -0.1688439
0.20420623 -0.07943083 0.044836964 0.0976575 0.06280133 -0.13327193 0.13847345 0.06883009
0.052200444 -0.023848064 0.04376811 -0.09467032 -0.015032287 0.0704421 0.033419326 0.029787578
-0.011496486 0.0523244 0.053902257 0.02813355 0.015580272 0.023534672 0.042163 0.009929794
0.0034042285 -0.0798901 0.07054365 -0.052364383 0.054275077 0.08359127 -0.055753063 -0.023522172
0.0099629145 -0.0140464725 0.000101759266 0.0024845144 -0.025235532 0.08862755 -0.14825383 0.073371165
0.029330118 0.12452127 0.08519609 -0.101907335 0.003185206 0.02115295 -0.056011137 0.10148926
0.055015802 -0.05264838 -0.05086787 0.09712538 0.09013852 -0.0043567615 0.05655157 -0.0015907169
-0.106491484 0.037759267 -0.07250041 -0.10545316 -0.016393466 -0.10893042 0.23154904 0.12253886
0.05402605 0.18064639 0.034053966 0.21849407 0.073432796 -0.045902364 0.05425315 -0.040069494
0.020208057 -0.18251157 -0.029794468 0.050680026 -0.060560793 0.08808187 0.14203943 -0.08624791
0.006006997 -0.07741515 0.13359842 0.030131694 0.06508008 -0.36354315 0.039669815 0.06239911
-0.07213802 0.1302954 0.024742689 0.18005186 -0.13149986 -0.070645235 -0.028239928 0.008261174
-0.030998737 0.08363 -0.043265317 0.0678808 -0.15251178 0.03819798 -0.032139167 -0.013700584
-0.026319837 -0.066021025 0.1674015 0.08584848 -0.021898989 -0.21543075 0.03160705 -0.028113168
-0.10708342 0.029416692 -0.13108122 -0.012832107 -0.16160744 0.100734726 0.0007279022 0.057847507
-0.26628053 -0.20078751 -0.08198072 0.092270106 0.045232147 0.099031 -0.036651794 -0.017845007

linear.bias f4 [15]
00000000: 1261 4340 325e ac3f 1711 a63f 5a36 673f
00000010: 5460 103f 48d8 153e dbbc d9bd 4f94 1cbe
00000020: 0783 3bbf ce9e 3bbf a0e7 4fbe 39e1 7ebf
00000030: 8498 b3bf bf38 babf 9808 b9bf
3.0527997 1.3466246 1.2973965 0.9031731 0.56396985 0.14633286 -0.106317244 -0.1529095
-0.73246807 -0.7328919 -0.20303202 -0.9956241 -1.4030919 -1.4548568 -1.4455748
