Assignment 2/model_fold_0.pth (torch, 25398 bytes, 2 tensors)

linear.weight f4 [15, 396]
000000 d9 cd d3 bd d1 74 f3 3d 22 46 c2 3d 8a 35 88 3d
       -0.10341997 0.11887515 0.09486033 0.06650837
000010 c5 7d b8 3d ff ee df 3d df d7 3b 3e d0 23 29 be
       0.09008364 0.10934257 0.18344067 -0.16517568
000020 07 9c 46 3e b5 bb ce bd f7 b1 2e 3e 1b 61 b3 3d
       0.19395457 -0.10094396 0.17060076 0.08758756
000030 f6 85 9c be 31 0d 3b 3d cc 87 40 bd 5e 2b c0 3d
       -0.30570954 0.045666877 -0.047004506 0.09383272
000040 26 31 8e be ea ee e8 3d 9b 89 2f 3e 16 66 5c 3e
       -0.27771872 0.11373694 0.17142336 0.21523318
000050 d6 5d 41 be 4b 00 fb bc fb 6a 5e 3e 71 53 0a bc
       -0.18883452 -0.030639788 0.21720497 -0.008442746
000060 5e 25 f0 3d 8e 97 04 3f 20 4b 47 3e b2 24 4d 3e
       0.11725877 0.51793754 0.19462252 0.2003353
000070 07 8d 93 be a9 77 20 be 6e 00 13 be a1 8a 77 3d
       -0.28818533 -0.15670647 -0.14355633 0.06043494
000080 dd 94 0e 3e b1 15 a4 3d 4d 38 c7 3d 2d 6c ab 3d
       0.13923974 0.0801195 0.097275354 0.08370242
000090 b5 34 b4 3d 52 2f 42 bc e7 9f 8a 3e ad ff 54 3b
       0.087991156 -0.011852102 0.2707512 0.0032501027
0000a0 df e2 88 3e 92 bb 2f 3e 73 68 62 3e 62 ce 36 bd
       0.2673559 0.17161396 0.22110157 -0.044630416
0000b0 59 68 e4 bd 6a 80 9e 3d 17 2f b8 3d a1 f9 30 3d
       -0.11152715 0.07739337 0.08993357 0.043206815
0000c0 78 1b 84 3d 60 50 9d 3d a1 6e dc bc c7 0c b7 bd
       0.06450552 0.07681346 -0.02690822 -0.08937984
0000d0 c5 4c 64 3e a7 52 b5 bc 86 a8 62 3c 9c 63 12 3e
       0.2229491 -0.022134138 0.013834124 0.1429581
0000e0 59 5f 15 3e 38 31 52 3d d7 6d 34 bd 47 d7 ab be
       0.14587153 0.05131647 -0.044050064 -0.3356268
0000f0 81 ad 85 bf 9a d5 3b 3e 38 e1 43 3c 98 33 fd bd
       -1.0443574 0.18343201 0.011955552 -0.12363356
000100 28 34 7f 3c 8d d9 3c bd 29 7c 87 bc 70 9d ff bd
       0.0155764 -0.04610591 -0.016538696 -0.12481201
000110 78 d4 c9 3d 87 0a 14 3e 67 11 48 3b b2 8e 4f bd
       0.09854978 0.14457141 0.003052795 -0.050673194
000120 97 c7 51 3b 84 ce 34 3d 19 6c 7d bd 4f fd 13 bc
       0.0032009834 0.04414226 -0.061870668 -0.009032561
000130 d9 5e cb 3d 60 8d df bc e3 d4 ea 3c 44 1b 26 3d
       0.099302 -0.027289093 0.028665965 0.040553346
000140 ef 20 70 3d 15 72 8f bd d8 28 00 3d 1e 24 cf 3d
       0.058625158 -0.07004181 0.03128895 0.10114311
000150 e0 84 b4 bc b6 c5 c7 bd 02 6c 75 bd fe d6 f6 3c
       -0.022036016 -0.09754507 -0.059917457 0.030131813
000160 4f 9a dc bc be d8 ec bd fc e5 82 be 96 70 15 3e
       -0.026929049 -0.11564778 -0.2556609 0.1459373
000170 cd 16 0b be 70 fc 77 bb dd 2f b8 3d e2 e5 e6 3b
       -0.13582917 -0.0037839673 0.08993504 0.007046447
000180 7b 49 0b 3e 8f 7b c2 3b ad d3 22 bd 9d 88 46 be
       0.1360225 0.0059351395 -0.03975265 -0.19388051
000190 a7 ff 0e 3e c2 99 57 3c b1 e0 ac 3d 81 fc fe 3d
       0.13964711 0.013159217 0.08441294 0.12450505
0001a0 18 5f 8e bd 04 0c 92 bd f7 86 7f 3c a0 22 8d 3d
       -0.069517314 -0.07131198 0.015596143 0.0689137
0001b0 ff ff 02 3c 12 f9 5a bd 56 f8 d2 3d 5d 47 87 3d
       0.007995605 -0.05346019 0.103012726 0.06605408
0001c0 82 5e 3c bd 5e 53 84 3b 04 c1 8a 3d 39 fb 58 bc
       -0.045988567 0.0040382585 0.06775096 -0.01324349
0001d0 fa 3b 29 bc 29 7a bd 3d a8 2b 28 3d 4e 3a 0d 3e
       -0.010329241 0.09251816 0.04105726 0.13791773
0001e0 de fc 03 bd a3 cb a4 3d 3a 78 0e 3d 47 cb 17 3d
       -0.032223575 0.08046653 0.034782626 0.037059095
0001f0 89 12 9c bd a6 ec 7e 3d eb ad 09 3e c1 50 d6 3d
       -0.07620723 0.062237404 0.1344525 0.10464621
000200 b3 8e 26 3e ab ea 15 bd 5f c3 6e bb 8b d0 b9 bc
       0.16265373 -0.03660075 -0.0036432368 -0.022682449
000210 67 b5 89 3d 70 f9 36 be 15 3c b4 3d 0c 1d 89 3d
       0.06724053 -0.1786859 0.08800522 0.066949934
000220 74 5d 49 3d 31 e0 b0 bc d0 af 4b 3d cd ae 20 be
       0.04916139 -0.021591278 0.049728215 -0.15691681
000230 cd 67 c6 bc 55 21 ad 3d 8f 72 6c bb 21 07 18 bc
       -0.024219418 0.08453623 -0.0036079024 -0.009279043
000240 75 3c 82 bb 68 e8 8b 3d 17 bc 0d 3d 2f f0 30 bd
       -0.003974492 0.06831437 0.034603205 -0.043197807
000250 2d 68 35 3d 1d 27 b5 3c be 14 10 3e c2 0a 51 bd
       0.044288803 0.022113377 0.14070413 -0.05103565
000260 05 54 a7 3b ec 88 d5 bd 8a 1a 03 3d 0a 13 98 bd
       0.0051064515 -0.104265064 0.03200773 -0.074255064
000270 65 eb 7d 3d 2c d6 9a 3d 37 f8 97 bd 86 f4 0e 3c
       0.061992068 0.07560381 -0.0742039 0.008725291
000280 13 6c 07 3c 3e a7 17 3b 82 59 32 bd 4b 0c 1f bd
       0.008265513 0.0023140456 -0.043542393 -0.038830083
000290 3d bf 9e 3c 96 d9 9f 3d 41 95 ae bd 35 1f 63 bc
       0.019378299 0.07805173 -0.08524562 -0.013862421
0002a0 ff 58 0d bd 3a 3d 63 3d 2f ca 94 bd 44 14 a9 bd
       -0.0345087 0.055478312 -0.07265126 -0.082558185
0002b0 07 5b 27 3d bb 73 45 bd 07 6e 83 bd 43 2c 53 3d
       0.040858295 -0.048206072 -0.064174704 0.051555883
0002c0 fd 7a ed 3d 36 18 e5 bd 3f f2 c5 3c d0 8e 3b bd
       0.11595724 -0.111862585 0.024163364 -0.045790493
0002d0 ef 67 e4 3c eb fd e3 bc c9 41 ee 3d 8f a0 83 3b
       0.02788159 -0.027831038 0.11633641 0.004016943
0002e0 27 2d 6f 3d 49 d5 86 3d 71 5d a0 3d bb 69 09 be
       0.05839267 0.0658365 0.078303225 -0.13419239
0002f0 be 74 96 bd 59 8a da bd c6 2b 45 3e ae 70 e6 3d
       -0.073464856 -0.10670919 0.1925498 0.11251961
000300 6a d8 9d 3c 09 87 3f 3e ee 49 82 3d e9 f0 18 3e
       0.019268233 0.18703856 0.06361757 0.1493565
000310 7a ff 91 3c 7c 4c 5f bd ff b6 20 3e 0d 3e 61 bd
       0.017822016 -0.0545163 0.15694807 -0.054990817
000320 cb 84 07 3e d3 f7 75 3d 13 98 26 bc 1c b1 1b 3e
       0.1323425 0.060050797 -0.010168093 0.1520428
000330 3d 71 7a bd 10 fc 23 3e ef 6d 3c 3e 27 79 c5 bc
       -0.06114315 0.16014123 0.18401311 -0.024105622
000340 3d c2 eb 3c ce 75 5c 3c 36 44 8c bc 04 91 ef 3c
       0.028779143 0.013455821 -0.01712237 0.029243954
000350 eb ae 2d 3d b5 73 b2 be d4 ae f4 3c 46 15 1d 3d
       0.042403143 -0.34853902 0.02986852 0.038350366
000360 bb d0 e4 bd 94 28 7b 3e d2 53 bd 3c a6 38 64 3e
       -0.11172625 0.24527198 0.023111258 0.22287235
000370 de d3 14 be a5 33 89 bd 02 90 47 bc a9 f4 80 bc
       -0.14533946 -0.066993035 -0.01218033 -0.015741663
000380 c9 b6 1b bd cd 40 c5 3d 19 f0 1d bd 11 b2 af 3d
       -0.038016114 0.096315004 -0.038559053 0.08578885
000390 3d 1c c5 bd 25 7c d5 bb 2f d5 8e 3c cd b8 c9 3c
       -0.09624527 -0.0065150433 0.017435638 0.024624253
0003a0 34 98 38 bd 60 d4 89 bd 88 fd 21 3e 7f c3 ed 3d
       -0.045067027 -0.067299604 0.15819371 0.116095535
0003b0 bc 63 1f 3d ce 56 71 be e0 f0 ac b8 f0 bb 55 bd
       0.038913473 -0.2356827 -8.2464656e-05 -0.052181184
0003c0 fb 6f d1 bd ec e4 37 ba c2 4d 3f be 99 df f5 3c
       -0.10226437 -0.0007015008 -0.18682006 0.030013846
0003d0 db 19 0d be 6f 24 9d 3d 90 9e 95 bb 2a 93 d5 3d
       -0.13779394 0.07672965 -0.0045660213 0.1042846
0003e0 bd 4f 5d be f5 43 ad bd a5 26 2d be 28 da d4 3d
       -0.21612449 -0.084602274 -0.16909273 0.103931725
0003f0 45 53 96 3d 37 1b 7b bd e1 b0 be bd ce a5 06 be
       0.07340101 -0.06130525 -0.09311081 -0.13149187

linear.bias f4 [15]
000000 b0 26 3e 40 a1 2c b4 3f 5f 0b af 3f 88 78 49 3f
       2.9711113 1.407612 1.3675345 0.7869954
000010 59 13 0f 3f 1c 03 86 3e c8 93 f5 3b 34 4b 4a be
       0.558889 0.26174247 0.0074944235 -0.1975525
000020 18 d1 0f bf b6 f8 5c bf eb e7 a5 be 60 97 8c bf
       -0.56178427 -0.86317 -0.32403502 -1.0983696
000030 0c 24 b7 bf e8 45 c1 bf 75 7a ba bf
       -1.4307876 -1.5099459 -1.4568621
