Assignment 2/model_fold_1.pth (torch, 25398 bytes, 2 tensors)

linear.weight f4 [15, 396]
0	0xbe0a4f0c	-0.13506716
1	0x3dd598a9	0.10429508
2	0x3d902103	0.070375465
3	0x3df68ea2	0.12038924
4	0x3d334b18	0.043772787
5	0x3dc8827e	0.097905144
6	0x3e6508a0	0.22366571
7	0xbe502282	-0.20325664
8	0x3e4f2799	0.20229949
9	0xbea28ff0	-0.3175044
10	0x3e391fbf	0.18078516
11	0x3da5e91d	0.081011035
12	0xbe028484	-0.12745863
13	0x3c71f968	0.014768936
14	0xbd3d60b7	-0.046234813
15	0x3dbea895	0.09309498
16	0xbe96c927	-0.29450342
17	0x3dc92a0c	0.09822473
18	0x3e284f52	0.16436508
19	0x3e304d5e	0.17217013
20	0xbe265922	-0.16244939
21	0xbd1c55b9	-0.03816769
22	0x3e4af021	0.19818164
23	0x3b92a574	0.00447529
24	0x3de7bd43	0.11315396
25	0x3ef0f4c6	0.47061747
26	0x3e547e78	0.20751369
27	0x3e402653	0.1876462
28	0xbe243ce0	-0.16038847
29	0xbeb1155a	-0.34586602
30	0xbe07c50f	-0.13258766
31	0x3d0e2acd	0.034708787
32	0x3dbd88a7	0.0925458
33	0x3e0fc420	0.1403966
34	0x3db37b8a	0.087637976
35	0x3dbff1f1	0.093723185
36	0x3dcb2789	0.0991965
37	0xbbaf37d0	-0.0053472295
38	0x3e6ea0d1	0.23303534
39	0x3d5fadff	0.054609295
40	0x3e9d3e27	0.3071148
41	0x3d8b1724	0.06791523
42	0x3e402a78	0.187662
43	0xbda2e27c	-0.07953355
44	0xbdd4e119	-0.103944965
45	0x3dcce3bf	0.100043766
46	0x3db0f3cb	0.0864025
47	0x3d57143d	0.052509535
48	0x3cf222be	0.029557582
49	0x3d94a654	0.07258287
50	0xbcc99683	-0.024607902
51	0xbd9ffc25	-0.07811765
52	0x3e859c08	0.26095605
53	0x3cc1999f	0.023632823
54	0xbb8c78d3	-0.0042868643
55	0x3e27513c	0.16339582
56	0x3db38fc1	0.08767653
57	0x3d73da50	0.05953437
58	0xbd1a93bf	-0.037738558
59	0xbec03d52	-0.37546784
60	0xbf79b8a8	-0.9754739
61	0x3e0df0af	0.13861345
62	0x3d8c4632	0.06849326
63	0xbe23569b	-0.15951006
64	0x3d872f5f	0.06600832
65	0xbd582b98	-0.05277595
66	0x3b84e625	0.0040557557
67	0xbda8bf11	-0.08239568
68	0x3d94f37d	0.07273004
69	0x3e0b8c23	0.13627677
70	0xbcfbc385	-0.03073288
71	0xbd2a33b6	-0.04155322
72	0x3ac8533a	0.0015283593
73	0xbc0eb366	-0.008709764
74	0xbe081da2	-0.13292554
75	0xbbe81dec	-0.007083645
76	0x3dd2fcfe	0.10302161
77	0x3bfa989f	0.0076475884
78	0x3cb9c456	0.022676628
79	0xbcb682d3	-0.022279179
80	0x3d56b24d	0.052416135
81	0xbe1d6760	-0.15371466
82	0x3d88942e	0.06668888
83	0x3df0b819	0.11753864
84	0xbce62f52	-0.028098736
85	0xbd2da1b3	-0.042390537
86	0xbd21f61d	-0.039541353
87	0xbc551508	-0.0130055025
88	0x3c122943	0.00892097
89	0xbdd78c14	-0.10524765
90	0xbe91c509	-0.28470638
91	0x3e2836ee	0.16427204
92	0xbdae2c2e	-0.0850452
93	0x3d874642	0.066051975
94	0x3d9a79e8	0.07542783
95	0xbd65580c	-0.05599217
96	0x3dc2f85f	0.09520029
97	0xbc466816	-0.012109777
98	0x3c86c354	0.016450562
99	0xbdcf7a4f	-0.101307504
100	0x3df6f512	0.12058462
101	0x3bfbf2a5	0.0076888376
102	0x3d011c19	0.031520937
103	0x3d737fc6	0.059448026
104	0xbe19c811	-0.15017726
105	0xbde8b027	-0.113617234
106	0xbd5d3ad4	-0.05401118
107	0x3dee05c8	0.116221964
108	0x3d399319	0.0453063
109	0xbb0d556c	-0.0021565808
110	0x3d9e0252	0.07715286
111	0x3cb07688	0.021540895
112	0x3c5e6245	0.013573234
113	0xbcaa79a2	-0.020809952
114	0x3e08f4b0	0.13374591
115	0xbd99c15e	-0.07507585
116	0x3cc67513	0.024225747
117	0x3deb8f61	0.11501957
118	0x3d1aac2d	0.037761856
119	0x3e206b0d	0.15665837
120	0xbd7b9de2	-0.061429866
121	0x3de8c9fd	0.11366651
122	0xbbf523df	-0.007481083
123	0x3d1c7e72	0.038206525
124	0x3d76c7b0	0.06024903
125	0x3d91216b	0.07086452
126	0x3cdf80b3	0.027283048
127	0x3cdf2630	0.027239889
128	0x3e1963f9	0.14979543
129	0xbe3849d0	-0.17996907
130	0x3d30005f	0.042969104
131	0xbcce6990	-0.02519682
132	0x3d7dc75d	0.061957706
133	0xbdeb1302	-0.11478235
134	0x3dd4de8f	0.10394012
135	0x3d061781	0.03273726
136	0x3daefbce	0.08544122
137	0x3b9f1e8f	0.004855938
138	0x3d8c8a9a	0.06862374
139	0xbdf6a44a	-0.120430544
140	0xbd106ee7	-0.035262015
141	0x3e3738f8	0.17892826
142	0x3d23345f	0.039844867
143	0x3d8e332e	0.069433555
144	0x3bae5e46	0.005321297
145	0x3dc71522	0.09720828
146	0x3db098c2	0.08622886
147	0xbd579dcc	-0.05264072
148	0xbb0676f6	-0.0020517684
149	0x3e0ba92f	0.13638757
150	0x3dbd2361	0.092352636
151	0xbbe961b8	-0.0071222447
152	0xba8db258	-0.0010810597
153	0xbde127cb	-0.10993918
154	0x3d75536b	0.059894007
155	0xbbebe90a	-0.0071994113
156	0x3db90d5c	0.09035751
157	0x3dbc4411	0.0919267
158	0xbd3a8060	-0.045532584
159	0x3c43f656	0.0119605865
160	0x3cbe7e14	0.023253478
161	0xbd1c0e75	-0.038099725
162	0xbd802244	-0.06256536
163	0xbd41018e	-0.047120623
164	0x3b6e5fab	0.003637294
165	0x3d3fcc98	0.046825975
166	0xbe0db518	-0.13838613
167	0xbd034965	-0.032052416
168	0x3cbc02c2	0.022950534
169	0x3d157330	0.036486804
170	0x3d6ab5e5	0.057302374
171	0xbdbbdebc	-0.091733426
172	0x3d87f17c	0.06637856
173	0xbcb9b801	-0.022670748
174	0x3cb1a34a	0.021684308
175	0x3d53a1a3	0.05166782
176	0x3e0c00a5	0.13672121
177	0xbc48b5e9	-0.012250402
178	0xbd31b67e	-0.04338693
179	0x3bd12a8c	0.006383246
180	0x3da0d421	0.078529604
181	0x3e08cf9e	0.1336045
182	0x3b006aca	0.0019594901
183	0xbcdcf7df	-0.026973663
184	0xbe0e1743	-0.13876061
185	0x3d14e5a3	0.03635181
186	0xbc8d4458	-0.017244503
187	0xbd8a86f3	-0.06764021
188	0x3c38e0e5	0.011284088
189	0xbc420c9f	-0.011843829
190	0x3e6fde76	0.23424706
191	0x3da9eea5	0.08297471
192	0x3ded972a	0.11601098
193	0x3e101e07	0.14073955
194	0x3dd55a0f	0.10417568
195	0x3e2e2ab9	0.17008485
196	0x3b8a9ec6	0.004230353
197	0xbbf35770	-0.007426195
198	0x3dff2f9c	0.12460253
199	0xbdb2229f	-0.0869801
200	0xbc1dfab1	-0.009642289
201	0x3d9a671b	0.07539197
202	0xbd3c6f34	-0.04600449
203	0x3d9f0e18	0.0776636
204	0xbd60aea3	-0.054854047
205	0x3dba7c19	0.09105701
206	0x3e3239ae	0.17404816
207	0xbdaadd2f	-0.08342969
208	0x3d5942bc	0.05304216
209	0x3cfbca98	0.030736253
210	0x3db57c76	0.0886163
211	0x3cb1e7cc	0.021716975
212	0x3dce4699	0.10072059
213	0xbea916a4	-0.33025086
214	0x3c54c5c2	0.012986602
215	0x3d68f8af	0.05687779
216	0xbd8f4c5a	-0.06996985
217	0x3e1f9eb4	0.15587884
218	0x3ceb263e	0.028704759
219	0x3e4219ec	0.18955201
220	0xbe153f63	-0.14574961
221	0xbd9051ca	-0.0704685
222	0x3b59e344	0.0033247033
223	0xbd3a1a53	-0.04543526
224	0xbc499bad	-0.012305182
225	0x3d9a72b0	0.07541406
226	0xbc369b7a	-0.011145467
227	0x3d8d72ef	0.069066875
228	0xbdb36a4b	-0.08760508
229	0x3d255916	0.040368162
230	0xbd2e6052	-0.042572327
231	0x3ce1818a	0.02752759
232	0x3c106644	0.0088134445
233	0xbdd6be04	-0.10485461
234	0x3e2396a2	0.1597543
235	0x3de950ee	0.11392389
236	0xbc21b7b2	-0.0098704565
237	0xbe834a10	-0.25642443
238	0x3d1d6452	0.03842575
239	0xbd7a25ae	-0.06107109
240	0xbdb5fbaa	-0.08885892
241	0xbcbe9b07	-0.023267282
242	0xbe66796c	-0.22507256
243	0xbb9ba510	-0.0047499016
244	0xbdacec40	-0.084434986
245	0x3d9c8144	0.07641843
246	0x3bc72a80	0.0060780644
247	0x3d13d99f	0.03609621
248	0xbe7fcf47	-0.24981414
249	0xbe65e8a4	-0.22452027
250	0xbe06a6f3	-0.13149624
251	0x3e1d1846	0.15341291
252	0x3d1614ec	0.036641046
253	0x3a9909d5	0.0011675904
254	0x3d4ab584	0.049489513
255	0xbcc2f5f1	-0.023798915

linear.bias f4 [15]
0	0x404126cc	3.017993
1	0x3fa8d635	1.3190371
2	0x3fb6993f	1.4265517
3	0x3f5c16f7	0.8597254
4	0x3eb8c2d4	0.36086142
5	0x3eaa2873	0.33233985
6	0xbcd2546f	-0.025675027
7	0xbde7debd	-0.11321781
8	0xbf406235	-0.7514985
9	0xbf5177bc	-0.81823325
10	0xbdfba9e9	-0.12288267
11	0xbf894029	-1.0722705
12	0xbfb9e062	-1.4521601
13	0xbfca8dd1	-1.5824529
14	0xbfc8bf95	-1.5683466
