Assignment 2/model.ckpt (torch, 25292 bytes, 2 tensors)

linear.weight f4 [15, 396]
-0.11277628 0.06883426 0.04129758 0.042008106 0.054054357 0.078447014 0.16181582 -0.1200017
0.15113634 -0.1067458 0.13796294 0.06496972 -0.17656949 0.016782176 -0.034791928 0.060245365
-0.117875785 0.09019454 0.1457499 0.17860308 -0.15147628 -0.08511383 0.16254988 0.017356409
0.07745332 0.45880675 0.18969232 0.11617499 -0.13575287 -0.15870158 -0.1881996 0.034702208
0.077238776 0.087614164 0.06807332 0.028728269 0.06802724 -0.012830259 0.19238062 0.036651824
0.24748963 0.09877689 0.15236978 -0.07093378 -0.1358454 0.022905696 0.055868946 0.020869523
0.017406944 0.04034638 -0.0021321909 -0.08069212 0.14609401 -0.029229494 0.0057086516 0.10360419
0.074931346 0.0329796 0.0006365362 -0.33121127 -0.8431199 0.102415554 0.018053278 -0.14895444
0.03331168 -0.067312166 -0.023442632 -0.040518347 0.08299664 0.124777615 -0.018837113 0.009946135
0.017455015 0.02318332 -0.09379184 -0.007923454 0.07459884 0.004666694 0.041293435 0.03306309
0.016795373 -0.044857614 -1.4908024e-05 0.10016532 -0.028043743 -0.044866502 -0.04425463 0.015764907
0.023751378 -0.07257566 -0.20628956 0.12725112 -0.10712757 0.03062411 0.053411175 -0.03321451
0.06791676 0.011905556 -0.019691344 -0.13253751 0.07756283 0.012556892 0.07194962 0.05737246
-0.082894966 -0.06891376 0.017426236 0.08837445 0.040748667 0.011641341 0.047484025 -0.006568353
-0.0038012094 -0.007010723 0.10873183 -0.011667878 0.020279324 0.060089607 0.026141241 0.08746857
-0.019738827 0.039991908 -0.0061485954 -0.00996954 0.019042829 0.028293869 0.07078933 -0.026542466
0.12292377 -0.08001815 0.002741781 0.04407969 0.027389588 -0.09865545 0.08695106 0.06352317
0.053420898 -0.025811382 0.019969974 -0.124961525 -0.011014148 0.08955613 0.024561558 0.0063498276
0.0404163 0.055323012 0.059496004 -0.009424341 -0.007840008 0.0658659 0.056110147 -0.036542173
0.0034075403 -0.05902501 0.030661995 -0.02088381 0.008540481 0.025808211 -0.074698545 -0.00047350573
0.0008596249 -0.034532215 0.009288757 -0.024176147 0.009538151 0.053195875 -0.09674511 0.0051392405
0.020709595 0.059668224 0.017298883 -0.058552723 0.0126600135 -0.006722595 -0.005881588 0.078376815
0.06812162 -0.02406113 -0.030331578 0.039723698 0.017739391 0.020858223 0.0027331982 0.0028982065
-0.030864093 0.0034987966 0.00156473 -0.104923345 -0.034280382 -0.10165911 0.13677873 0.1120203
0.06372425 0.110686526 0.0344486 0.1441803 0.028041925 0.0036271801 0.09892481 -0.01277565
0.03884892 -0.01437099 -0.007998104 0.082734674 -0.07214642 0.050564095 0.13590048 -0.050848033
0.049491055 -0.047665544 0.038377322 0.044003837 0.046452694 -0.28694862 0.01011437 0.03205417
-0.037739407 0.15363297 0.021520205 0.1798594 -0.08722154 -0.042202532 0.032170914 0.0013328462
-0.038128175 0.06256201 -0.04471615 0.08916739 -0.10386287 0.009558295 0.003814648 0.042261485
-0.036138535 -0.042428546 0.14664562 0.09306348 0.014585638 -0.20381694 0.04487096 0.0039302693
-0.08461894 0.023034895 -0.15762153 0.0019040013 -0.109776966 0.10200761 0.011164887 0.076304406
-0.16411142 -0.1546872 -0.06881922 0.10211502 0.027259849 0.053363208 -0.0031086016 -0.03664173
00000000: 40f7 e6bd faf8 8c3d a727 293d b110 2c3d
00000010: 1a68 5d3d d4a8 a03d 0cb3 253e 74c3 f5bd
00000020: 7cc3 1a3e 8b9d dabd 2846 0d3e d80e 853d
00000030: a2ce 34be c67a 893c fb81 0ebd d8c3 763d
00000040: dc68 f1bd eab7 b83d 763f 153e bae3 363e
00000050: 991c 1bbe 2950 aebd 7a73 263e 072f 8e3c
00000060: d99f 9e3d b8e8 ea3e b43e 423e 27ed ed3d
00000070: cd02 0bbe ab82 22be 65b7 40be e723 0e3d
00000080: 5d2f 9e3d 0e6f b33d 066a 8b3d 8c57 eb3c
00000090: de51 8b3d 0236 52bc 6dff 443e 3920 163d
000000a0: ec6d 7d3e 8a4b ca3d d306 1c3e bb45 91bd
000000b0: 0e1b 0bbe baa4 bb3c d6d6 643d 90f6 aa3c
000000c0: 0299 8e3c 3f42 253d 3abc 0bbb e941 a5bd
000000d0: ab99 153e b172 efbc a40f bb3b 6f2e d43d
000000e0: 9b75 993d 9e15 073d 39dd 263a 8694 a9be
000000f0: b5d6 57bf 3fbf d13d 78e4 933c 8387 18be
00000100: d471 083d f6da 89bd c30a c0bc 91f6 25bd
00000110: 24fa a93d 688b ff3d 4a50 9abc 1df5 223c
00000120: d2fd 8e3c f2ea bd3c f015 c0bd 60d1 01bc
00000130: 47c7 983d 11eb 983b 4e23 293d 2a6d 073d
00000140: 7396 893c 9ebc 37bd 7a1d 7ab7 7a23 cd3d
00000150: febb e5bc f0c5 37bd 5844 35bd 6825 813c
00000160: 4092 c23c 8ca2 94bd 923d 53be 1e4e 023e
00000170: b365 dbbd 6adf fa3c adc5 5a3d f00b 08bd
00000180: f117 8b3d 850f 433c be4f a1bc eab7 07be
00000190: 43d9 9e3d 6cbb 4d3c 535a 933d 62ff 6a3d
000001a0: d6c4 a9bd a822 8dbd 77c1 8e3c aafd b43d
000001b0: 13e8 263d 53bb 3e3c 9c7e 423d 573b d7bb
000001c0: b61d 79bb 35ba e5bb cbae de3d a12a 3fbc
000001d0: d320 a63c 8520 763d 2826 d63c b922 b33d
000001e0: 52b3 a1bc 8ece 233d 287a c9bb 4857 23bc
000001f0: b5ff 9b3c 8bc8 e73c fff9 903d 966f d9bc
00000200: 75bf fb3d 8ee0 a3bd 74af 333b e88c 343d
00000210: 2160 e03c de0b cabd 6613 b23d 7018 823d
00000220: dfcf 5a3d 6472 d3bc 1298 a33c d4eb ffbd
00000230: af74 34bc 3469 b73d 5235 c93c 3712 d03b
00000240: 908b 253d 629a 623d 15b2 733d 8d68 1abc
00000250: 6073 00bc b3e4 863d c1d3 653d 3fad 15bd
00000260: 0a51 5f3b 35c4 71bd dd2e fb3c 8614 abbc
00000270: 60ed 0b3c be6b d33c 8dfb 98bd dd40 f8b9
00000280: 7358 613a a771 0dbd df2f 183c 0e0d c6bc
00000290: e845 1c3c ebe3 593d 4d22 c6bd 1367 a83b
000002a0: 2ba7 a93c ab66 743d 63b6 8d3c fbd4 6fbd
000002b0: f26b 4f3c 3749 dcbb 56ba c0bb 0684 a03d
000002c0: 5983 8b3d d91b c5bc ee79 f8bc 51b5 223d
000002d0: 3352 913c ddde aa3c 751f 333b d6ef 3d3b
000002e0: b2d6 fcbc 114c 653b a017 cd3a 0de2 d6bd
000002f0: 9669 0cbd a732 d0bd b90f 0c3e e66a e53d
00000300: dc81 823d 9eaf e23d fa19 0d3d 00a4 133e
00000310: 2eb8 e53c fcb5 6d3b 1799 ca3d f650 51bc
00000320: 0c20 1f3d 4d74 6bbc 7b0a 03bc cc70 a93d
00000330: 81c1 93bd 4c1c 4f3d 7f29 0b3e 0746 50bd
00000340: 22b7 4a3d f23c 43bd 8a31 1d3d 5e3d 343d
00000350: 2e45 3e3d eeea 92be beb6 253c 3c4b 033d
00000360: a394 1abd f651 1d3e 244b b03c 102d 383e
00000370: 35a1 b2bd 90dc 2cbd a6c5 033d e6b2 ae3a
00000380: 4a2c 1cbd 8320 803d 4828 37bd 649d b63d
00000390: 0eb6 d4bd 659a 1c3c 2cff 793b 611a 2d3d
000003a0: 0006 14bd 8ec9 2dbd 452a 163e 1198 be3d
000003b0: 9af8 6e3c 63b5 50be 9dca 373d 7dc9 803b
000003c0: b24c adbd adb3 bc3c 8a67 21be af8f f93a
000003d0: bfd2 e0bd 5ee9 d03d eeec 363c 7c45 9c3d
000003e0: d30c 28be 5266 1ebe 17f1 8cbd ae21 d13d
000003f0: 0c50 df3c 6193 5a3d aeb9 4bbb a415 16bd

linear.bias f4 [15]
2.3737228 1.0310854 0.89444506 0.51900625 0.32172722 0.10784157 -0.08465446 -0.17482413
-0.4649837 -0.56678647 -0.16997835 -0.6825398 -0.88579565 -1.0033302 -0.96347475
00000000: 13eb 1740 9bfa 833f 5afa 643f 98dd 043f
00000010: 6eb9 a43e 0bdc dc3d 515f adbd 1905 33be
00000020: 5812 eebe eb18 11bf ce0e 2ebe eeba 2ebf
00000030: 81c3 62bf 206d 80bf 48a6 76bf
