Assignment 2/model_fold_2.pth (torch, 25398 bytes, 2 tensors)

linear.weight f4 [15, 396]
000000 07 db fc bd e3 cc 0d 3e 63 b6 24 3d 6c 98 95 3d
       -0.12346464 0.1384769 0.040213 0.07304463
000010 62 28 ae 3d bc 5c 8b 3d 31 9b 7f 3e c0 d1 b5 bd
       0.08503796 0.06804797 0.24961545 -0.08877897
000020 c3 86 47 3e 1c 79 a6 bd bd d8 3a 3e cd b8 81 3d
       0.19485001 -0.081285685 0.18246742 0.06334076
000030 b6 be 64 be f0 2b 92 3d b9 e1 81 bc 2a 3a 6f 3d
       -0.22338375 0.07137287 -0.015854703 0.05840508
000040 13 13 9b bd 2d d3 eb 3d 55 69 5c 3e cf 32 6f 3e
       -0.075719975 0.11514888 0.21524556 0.23359226
000050 ce 18 39 be 39 3d b3 be aa 95 35 3e 33 97 a1 3c
       -0.18075868 -0.35007647 0.17732874 0.019725418
000060 04 49 0b 3e 1d 65 0c 3f 3b f7 83 3e 73 43 56 3e
       0.13602072 0.54841787 0.2577456 0.20924167
000070 b3 39 d4 bd 27 a7 17 be f6 ab 6b be df 73 1c 3c
       -0.10362568 -0.14809857 -0.23014817 0.00954911
000080 32 62 bd 3d 41 82 c4 3d 40 b4 ce 3d 1d c3 08 bc
       0.09247245 0.095951565 0.10092974 -0.0083473
000090 f0 5b d3 3d 26 e6 0c 3d 93 13 47 3e d9 9f 5a ba
       0.1032027 0.034399174 0.1944106 -0.0008339859
0000a0 cb 4e 8b 3e f9 ec f2 3d 37 1a 69 3e 6d 77 a0 bd
       0.27208552 0.11861605 0.22763906 -0.07835279
0000b0 7e fb 3a be 47 85 a7 3d ad 8c ac 3d c2 de 05 3d
       -0.18259999 0.081797175 0.08425269 0.03268314
0000c0 67 38 37 3d 88 37 60 3d 14 a8 62 bc 41 43 b7 bd
       0.044731524 0.05474046 -0.013834018 -0.089483745
0000d0 2e 30 24 3e 0c 71 a4 bd 5e b0 b9 3d e4 d5 12 3e
       0.16034004 -0.080293745 0.090668425 0.14339405
0000e0 91 fb 05 3e a1 a9 6b 3c db 9b d4 3b 0e ec a4 be
       0.13084246 0.014383704 0.006488306 -0.32211345
0000f0 b1 bd 81 bf af 21 21 3e 6a 22 2e 3d 5d 1e 16 be
       -1.0136014 0.15735506 0.04251329 -0.1466002
000100 d9 f6 93 3d ae 8f 92 bd 60 e4 1e bd cc b6 5f bd
       0.07224817 -0.07156311 -0.038792014 -0.054617688
000110 46 8a b3 3d 94 91 3e 3e 8e 1e b4 bc 39 60 5b bc
       0.08766608 0.18610221 -0.021987226 -0.0133896405
000120 ec 44 93 3c 7f b9 b4 3c 8d 96 22 be 89 52 26 3c
       0.0179772 0.022061108 -0.15877743 0.010151514
000130 74 12 84 3d 10 99 f1 bc 13 5f 79 3d aa b6 c7 3c
       0.06448832 -0.029491931 0.060881685 0.024379093
000140 b3 ab b1 bc 77 a2 6c bd b9 9e ed 3b e1 b9 83 3d
       -0.021688318 -0.057772126 0.007251587 0.06431938
000150 8e 5d 9f bb 72 4e 3d bc 17 ba 52 bd e5 5e 00 3d
       -0.0048634475 -0.011554347 -0.051447 0.0313405
000160 b4 0a 43 3b c5 77 e1 bd c1 1a 93 be 6f a8 30 3e
       0.0029761018 -0.11009172 -0.2873135 0.17251752
000170 1e 06 e4 bd fc e0 00 bb d8 ce 27 3d 49 f9 0b bd
       -0.11133979 -0.001966535 0.040968746 -0.034173284
000180 f8 db a5 3c a1 92 f7 3b e8 57 9c bc 54 f9 0a be
       0.02024649 0.0075553213 -0.019084886 -0.13571674
000190 ad 30 9f 3d 19 a7 d7 bc 62 c5 e8 3d f9 28 d9 3d
       0.07772956 -0.026324796 0.11365773 0.10603518
0001a0 31 a6 63 bc 21 af 36 bd 1d ac 3c 3d 2e cd 20 3e
       -0.013894604 -0.04460061 0.046062578 0.1570327
0001b0 0c 0e 0c 3d e4 95 06 bd 64 68 a4 3d 07 0c 82 bd
       0.034193084 -0.03285779 0.080277234 -0.0634995
0001c0 3e cf 8e bd 6e 4d c4 3c fb 1c e9 3d 83 79 51 bd
       -0.06973122 0.023962703 0.11382481 -0.051141273
0001d0 65 56 65 3c ca 7c 22 3d 13 55 40 3c 85 7b 15 3e
       0.013997649 0.03966979 0.011739033 0.145979
0001e0 41 e5 0e bd 3a 69 87 3d 05 27 0c bb 58 04 b4 bd
       -0.034886602 0.06611867 -0.0021385562 -0.08789891
0001f0 51 41 0c 3d f6 35 64 3d 94 61 1a 3e 1f 11 2c 3c
       0.034241978 0.055715524 0.15076286 0.010502129
000200 d5 f2 3a 3e aa f6 9f bd e3 36 71 3d d6 28 c9 3d
       0.18256696 -0.07810719 0.058890235 0.09822242
000210 46 e7 8c 3d 96 df 80 bd 68 e2 ab 3c 94 83 c7 3d
       0.068800494 -0.06292646 0.020981982 0.097418934
000220 72 07 97 3d 79 8f 7e bd 7d de 8f 3d 10 5e e7 bd
       0.07374467 -0.062148545 0.07024858 -0.11297238
000230 57 28 90 3c 65 ef b8 3d 73 52 ef bb 77 2d 73 3d
       0.01759736 0.09030036 -0.00730353 0.05936953
000240 6b 09 5a 3d 2e ed 1a 3e 6a d4 5b 3d 5b a8 0b 3d
       0.053231638 0.1512954 0.05366937 0.034096103
000250 fc f4 00 bd 0d e0 a1 3c cf 56 25 3d 37 73 f8 3c
       -0.031483635 0.019760156 0.04036599 0.030328376
000260 2a 51 00 3c 1b 34 a0 bd c4 2c 06 3c 67 e4 81 3b
       0.007831851 -0.07822438 0.008189384 0.0039639953
000270 aa d8 3f 3d 53 3b c9 bc c5 8c 04 bd 51 2e 8d 3c
       0.046837486 -0.02456442 -0.03236081 0.017234
000280 1f ef d9 3c 54 51 96 bd 63 2d ca 3d 03 bb 02 bd
       0.02660328 -0.07339731 0.09871938 -0.03191663
000290 9a 9c 6b bc be ea 33 3d a0 cc 06 bd 44 71 42 3d
       -0.014380598 0.04392504 -0.03290999 0.0474713
0002a0 a0 9a 8a 3c fa 35 0c 3d 0c de 18 3d 09 c6 cf bd
       0.016919434 0.034231164 0.037321135 -0.10145194
0002b0 e2 bf 6f bc 83 97 25 bd 05 ef 85 bd d4 80 c3 3d
       -0.014633151 -0.040427696 -0.0653973 0.095460564
0002c0 66 ce 02 3e bd 90 3d bc 50 ea 24 3b 60 74 6b bc
       0.12774047 -0.011570153 0.0025164075 -0.014371008
0002d0 4f 5a aa 3d 09 d5 19 3d d0 96 d3 3c e8 4f 1b bd
       0.08318006 0.03755668 0.025828749 -0.037918
0002e0 54 08 c3 3b 94 2d ff 3c 07 35 ca 3c 20 67 2c bd
       0.0059519205 0.031149663 0.024683489 -0.042090535
0002f0 b1 97 b8 bc 81 37 70 bd 36 c8 fd 3d 26 2c 39 3e
       -0.02253327 -0.058646683 0.12391703 0.18083248
000300 2f ac 40 3d 9e 63 fd 3d 09 72 ee 3c be 88 0e 3e
       0.047039207 0.12372516 0.02910711 0.1391935
000310 e8 9b 39 bc 76 41 a5 bc c2 c6 2d 3e d9 b6 b5 bc
       -0.011328675 -0.020172816 0.16970351 -0.022181915
000320 06 57 c7 3d 65 e3 60 3d 84 86 04 bd 87 77 b0 3d
       0.09733395 0.05490436 -0.032354847 0.08616548
000330 d7 5c dd bb f0 11 b5 3d 3f 60 10 3e d2 f9 46 b9
       -0.006755452 0.08841312 0.14099215 -0.00018975817
000340 c9 82 6f 3d 20 0b 28 bd 47 06 b1 3d 4a c0 72 3c
       0.058474336 -0.041026235 0.086437754 0.014816353
000350 69 86 c6 3d 38 ad 8e be b4 0e 37 3d 61 28 a6 3d
       0.096936055 -0.2786653 0.044691756 0.081131704
000360 82 ae 21 bd 23 25 2e 3e f2 4e e2 3b 37 56 68 3e
       -0.039473064 0.17006354 0.0069063837 0.22689138
000370 20 c9 11 be 67 f4 93 bd 8c e8 19 bd d8 91 a1 3c
       -0.1423688 -0.072243504 -0.03757529 0.019722864
000380 7b 87 5a bd f3 a3 fa 3c 8b f9 ea bd f9 60 d6 3d
       -0.05335186 0.030595755 -0.11473378 0.10467715
000390 5e 7d c7 bd e7 f4 31 3d 1f 75 aa 3b 56 42 c3 3b
       -0.09740709 0.043446448 0.00520195 0.0059588356
0003a0 e3 85 bf bb 66 ce 00 3c 3e 2f 36 3e 49 cc a9 3d
       -0.005844818 0.007861709 0.17791459 0.082909174
0003b0 e8 73 f6 bb f3 ae 5a be dc 43 f8 bc c1 93 97 bd
       -0.0075211413 -0.213558 -0.030305795 -0.07401229
0003c0 3d a9 17 be b7 1a 90 3d 0e 74 0d be dc a4 cc 3a
       -0.14810653 0.070363455 -0.13813803 0.0015613097
0003d0 6d 64 1d be 4d 56 d9 3d 1f 93 9d bb b3 bf 09 3e
       -0.1537034 0.10612164 -0.004808798 0.13452034
0003e0 f5 88 49 be ad b4 1a be 7a 8f 03 be e3 04 c0 3d
       -0.19681151 -0.15107985 -0.128477 0.09375932
0003f0 f4 de 24 3d c6 48 9e 3d 32 be d9 bb c5 83 98 bc
       0.040251687 0.07728724 -0.0066449875 -0.01861752

linear.bias f4 [15]
000000 dc e9 3f 40 71 25 b9 3f ba ca ac 3f 33 d4 62 3f
       2.9986486 1.4464551 1.3499367 0.8860504
000010 86 a3 16 3f 2a d1 66 3e ac ce 96 3c c6 0c 5b be
       0.58843267 0.22540727 0.018409096 -0.21391591
000020 f2 49 45 bf 4e 74 6f bf 53 6c ce bd 90 74 8b bf
       -0.77065957 -0.9353684 -0.10079255 -1.0894947
000030 29 89 ba bf f1 92 c3 bf 2e 6e bc bf
       -1.4573108 -1.5279218 -1.4721124
