Assignment 2/model_fold_2.pth (torch, 25398 bytes, 2 tensors)

linear.weight f4 [15, 396]
00000000: 2d3c 1abe 32ff 443d 3b33 fe3d 76b3 013e
00000010: 24e9 623d 1ec6 dd3d fd86 8d3e 8b0c 79be
00000020: 5f85 3c3e 050b d5bd a42b 203e 641d f33c
00000030: a079 1bbe 7578 0c3d 45d5 bbbd 3e82 cb3d
00000040: e355 dabd fe07 163e 5536 303e e053 7c3e
00000050: bbbf 46be f628 38bd 2178 363e 9407 d83b
00000060: 4ed6 d43d a1e4 fb3e a61f 843e de8c 203e
00000070: 1e9d ddbd de64 1ebe 4a5b 4dbe 5367 a43d
00000080: ea9e d43d 30b5 df3d 89f1 913d e8b4 043d
00000090: 2033 8d3d a263 8b3c b0fa 4b3e aef0 633d
000000a0: 95ce 803e f037 013e 0866 583e f2cd 96bd
000000b0: a1e5 d5bd c54b de3d 4b04 b43d 61d6 1d3d
000000c0: 1e6f 283d 13dd c93c 3fb9 2f3c b557 07be
000000d0: 2489 3e3e a2d7 d9bd 05c5 8e3d 586d 133e
000000e0: 993a cb3d 11fe 3e3d 42c8 67bd d509 a9be
000000f0: 25eb 84bf c78a 253e b1e0 e33d 2987 24be
00000100: 6abd 963d 1dd1 90bd 61a8 00bd 6036 c03c
00000110: 9661 da3d 72ea d33d 82f5 933c 18e8 cd3d
00000120: 74a7 023c 0ee8 593d f0a0 ebbd 529e 7cbc
00000130: fddd ae3d 99e6 8ebc 9d1b d43c 06fe e93b
00000140: da37 54bb 366b c5bd 06bf 303d 1524 043e
00000150: bcc7 f9bb a0e6 d0bc fdb1 1ebd 5b47 103c
00000160: 01bd bdbc cec7 47be 87c3 bdbe cb91 0e3e
00000170: 38fa 11bd a4cc 74bc c078 a23d 1c86 7dbd
00000180: f885 bb3d 3e17 063c 0aa7 d83c 5114 14be
00000190: f183 c43d 4f6f 11bd 2ff6 813d 01eb 943d
000001a0: 7f30 27be eaea 02be d824 d1bc 280a 123e
000001b0: 3051 6b3d b3cb ea3c c77b 6b3d a670 003d
000001c0: 7914 b4bd e109 fdbc fbf0 3f3e 8ba7 1cbd
000001d0: 0ad6 1b3c d1c9 923d 590f 703d 7ea4 ad3d
000001e0: bd12 59bc 1406 213e 368c 06bd ad7e 093e
000001f0: 3cb3 2ebc 2c3c 1fbc d56e 5b3d 3253 17be
00000200: 1524 3f3e e98f 9abd 99f9 3c3c 6c90 073d
00000210: 6016 103d 807d 90bd a43f cd3d 1510 163d
00000220: 52b6 993d 0593 74bd 6f28 8c3b 20b0 2dbe
00000230: 343a bebd 076a 343e 3f58 2c3d 7a80 9f3d
00000240: 864b 1f3d 44fa de3c d8a9 dc3d 16ac 9dbc
00000250: 34c1 a33c a781 2d3d 14f6 6c3d 8fbd cdbc
00000260: aaa0 7e3b d0b2 aebd 61a5 923d de42 6ebd
00000270: 20f1 8b3c 5cce 033d 74a7 e6bd ec33 d13c
00000280: 274a b73d abf8 d6bd b650 a63d bcfc d7bc
00000290: e667 333d 0535 ce3d c7db 9cbd 34f6 213c
000002a0: 02c8 183d 06a1 0f3d ce43 d03d 7ca8 cabd
000002b0: bf9b b2bb 4587 8ebd c64e 6e3c 9945 ccba
000002c0: 9acc 233e c5dc c5bc 29f1 443d c57e a23d
000002d0: ab50 743b 850a 62bd 8915 b73d 8be6 213d
000002e0: cb7d 8cbd fa16 bbbc 13ec b2bc 7dd3 edbc
000002f0: e163 5bbd 3bb5 35be 559e 533e 8d94 233d
00000300: ffa1 5c3d 57fe 413e 2efe ce3c 3e1a 253e
00000310: 6b89 b43d 58c0 883c 0593 1a3e 746d 33bd
00000320: 9a42 273d 20b6 7ebd 1842 45bc cdc0 213e
00000330: a248 97bd dda2 3f3d 1243 1b3e f4bc 273d
00000340: ce1c 9a3d fa41 5dbd bc02 983d 0bf2 12bb
00000350: 87e0 8c3d f385 adbe aa0e a1ba 56fb 8c3c
00000360: 1034 5fbc 6bc7 423e dd7f d3bc 718c 683e
00000370: 7d25 0fbe 13b8 a4bd f5ca e03c b7a2 903b
00000380: 446c abbc 530c 5e3d f914 8dbd f7d8 b43d
00000390: 98c1 a5bd 0b93 603d 763c 04bd 5464 74bc
000003a0: 8794 0d3c bcc5 25bd 332e 3d3e ba7d d93d
000003b0: a636 913c 5246 90be 20b1 9fbb 2a78 a0bc
000003c0: be16 60bd e51f 6e3c 67d7 3cbe ae9e 943a
000003d0: d2d3 f1bd 53f6 253e e220 9b3d 8b04 a73d
000003e0: b8a9 9bbe b361 0fbe 850c 0cbe 002e 043e
000003f0: f048 153d b060 953d 5449 633b ad31 cbbc
-0.15062018 0.048094936 0.12412115 0.12666115 0.05539812 0.108288035 0.2764205 -0.24321191
0.18410252 -0.104024924 0.15641648 0.0296771 -0.15183115 0.034294564 -0.09171537 0.09936951
-0.10660913 0.14651486 0.17208226 0.24641371 -0.19409077 -0.04496094 0.17819263 0.0065927003
0.10392438 0.49197868 0.25805396 0.15678737 -0.10820983 -0.15468165 -0.20054355 0.0802752
0.10381873 0.10923231 0.07126147 0.03239909 0.06894517 0.017015282 0.19919848 0.055649452
0.2515761 0.12618995 0.21132672 -0.073635 -0.10444189 0.10854296 0.08789881 0.038534526
0.041121595 0.02464155 0.010725318 -0.13217051 0.18607002 -0.10636832 0.06971172 0.1439718
0.09923286 0.046629015 -0.056587465 -0.33015314 -1.038426 0.1616622 0.11126841 -0.16067185
0.073603466 -0.07071135 -0.03141058 0.023463428 0.10663144 0.10347451 0.018061403 0.10054034
0.007974494 0.05319982 -0.11505306 -0.015418606 0.08538435 -0.017443942 0.025892073 0.0071408777
-0.0032381923 -0.096395895 0.043150924 0.12904389 -0.007622687 -0.025500596 -0.03874396 0.008806075
-0.023161413 -0.19509813 -0.37063238 0.13922803 -0.035639018 -0.014941368 0.079331875 -0.061895475
0.09156412 0.008184252 0.026446838 -0.14460875 0.09595478 -0.035506543 0.06345784 0.07271386
-0.16327094 -0.12784925 -0.025530264 0.14261687 0.057450473 0.028661584 0.05749109 0.03135743
-0.08792967 -0.0308885 0.1874427 -0.03824572 0.00951148 0.071674 0.058608387 0.0847864
-0.013249096 0.15724975 -0.03284856 0.13427229 -0.01066285 -0.009718936 0.053572495 -0.1477783
0.18666108 -0.0754698 0.011534118 0.033096716 0.03517759 -0.07055187 0.10021904 0.03663643
0.07505478 -0.05971052 0.004277281 -0.16961718 -0.09288445 0.17618571 0.042076346 0.07788177
0.038890384 0.027218945 0.107745826 -0.019247096 0.019989587 0.042359974 0.057851866 -0.025114803
0.0038853087 -0.085301995 0.0716045 -0.05816924 0.01708275 0.03217922 -0.11262408 0.025537454
0.0894969 -0.104966484 0.08120863 -0.02636563 0.043800257 0.100687064 -0.07659107 0.00988536
0.037300117 0.035065673 0.10169183 -0.09895417 -0.0054506953 -0.06959394 0.014545148 -0.0015584707
0.15996018 -0.024153123 0.04808155 0.079343356 0.0037279527 -0.055185813 0.089396544 0.039526504
-0.068599306 -0.022838105 -0.021841085 -0.02903151 -0.05356205 -0.17744915 0.20665868 0.03993659
0.05386543 0.18944679 0.025267687 0.16123292 0.08815273 0.01669328 0.15095146 -0.043805555
0.040835 -0.062185407 -0.012039684 0.15796204 -0.073869005 0.046786178 0.15162304 0.040951684
0.07525025 -0.054018 0.074223965 -0.00224221 0.06878763 -0.33891258 -0.0012287695 0.01720969
-0.0136232525 0.19021384 -0.025817806 0.22709824 -0.13979144 -0.08042922 0.027440527 0.0044139284
-0.020925649 0.054210972 -0.06888766 0.08830445 -0.08093566 0.05482773 -0.032284223 -0.014916498
0.008641369 -0.040471777 0.18474655 0.106196836 0.017726254 -0.2817865 -0.00487341 -0.019588549
-0.05470919 0.014533971 -0.18441544 0.0011338794 -0.1180798 0.16207246 0.07574631 0.081551634
-0.30402923 -0.14002113 -0.13676651 0.12908173 0.03644651 0.07293832 0.0034681158 -0.02480396

linear.bias f4 [15]
00000000: 82f5 3f40 1c98 b53f 4a2f bc3f 7fed 523f
00000010: af69 073f 11e0 733e 4c33 123d eed3 73be
00000020: bbbe 28bf 5796 6cbf d9f8 12be d936 7dbf
00000030: 06be b6bf 91db d1bf 5dbd b9bf
2.9993596 1.4187045 1.4701931 0.8239364 0.52895635 0.23815943 0.03569345 -0.23811314
-0.6591603 -0.924169 -0.1435274 -0.98911816 -1.427674 -1.6395131 -1.4510914
