Assignment 2/model_fold_2.pth (torch, 25398 bytes, 2 tensors)

linear.weight f4 [15, 396]
000000 21 19 e8 bd 8c f1 a4 3d 64 3f 06 3e 58 a4 74 3d
       -0.11332918 0.08053884 0.13110119 0.059727043
000010 ec 1d fe 3d 1f aa bc 3d 9a e2 35 3e e0 1f d4 bd
       0.12408051 0.092121355 0.17762223 -0.10357642
000020 00 f9 57 3e 81 ed a8 be 31 83 4d 3e 1b fd 8b 3d
       0.2109108 -0.329937 0.20069577 0.068353854
000030 2b d6 fc bd 49 5c 43 bc 5f 88 08 bd 2e 19 a2 3d
       -0.12345537 -0.011923858 -0.03333318 0.07914959
000040 2c 47 cf bc 47 2e f3 3d 96 2a 45 3e 38 3f 4c 3e
       -0.025302492 0.11874061 0.19254526 0.19945991
000050 69 4a 49 be 1a fc 5b bd b9 54 56 3e a7 ea 2e 3d
       -0.19657291 -0.05370722 0.20930757 0.04270425
000060 35 bd cf 3d 17 68 ed 3e 50 7a 81 3e 86 62 24 3e
       0.1014351 0.46368477 0.2528863 0.16053209
000070 5f 1f 47 be 2a a6 33 be 97 a1 3a be 97 2e 2c 3d
       -0.19445561 -0.17543855 -0.18225704 0.04203662
000080 67 37 fc 3d 79 d6 f5 3d 97 d8 c8 3d 2c 8b 0f 3d
       0.12315255 0.12003798 0.09806936 0.035044834
000090 de 51 06 3e 2b 7c 84 3b 33 c3 53 3e 07 6e 39 3c
       0.13117167 0.0040431223 0.20679931 0.0113177365
0000a0 a2 0c 86 3e 8b 56 0a 3e a1 05 45 3e f7 ef 53 bd
       0.26181513 0.13509576 0.19240429 -0.05174252
0000b0 9a be c5 be b0 7d c7 3d 45 f8 85 3d 95 60 14 3d
       -0.3862198 0.0974077 0.06541494 0.03622492
0000c0 27 a4 08 3d 9a 46 ba 3c dc 49 cb 3c 39 b5 07 be
       0.033359673 0.022738744 0.024815492 -0.13252725
0000d0 0b fa 38 3e b7 8b c1 bc 5d 54 49 3d db 3a 0f 3e
       0.18064134 -0.023626192 0.04915272 0.13987295
0000e0 47 91 ef 3d 42 27 2e 3d 5e 76 4a 3c 4f 47 c4 be
       0.11697631 0.042517908 0.0123573225 -0.38335654
0000f0 fb ee 7f bf 0e 29 18 3e 78 5a 36 3d dd 12 42 be
       -0.9997403 0.14859411 0.04451987 -0.18952508
000100 d8 00 7b 3d 8a 39 67 bc d6 bd ae bb 2d f9 89 bb
       0.0612801 -0.0141128395 -0.005332689 -0.0042106123
000110 eb c2 ad 3d 31 d1 5e 3e 71 dd 7d bd 8e 2c e8 bc
       0.08484443 0.21759488 -0.06197876 -0.028341558
000120 bc 3d 82 bc 69 6a 89 3b 87 f1 8b bd dd 6a 23 bd
       -0.015898578 0.0041935933 -0.06833177 -0.039896835
000130 c9 f6 b7 3d d0 66 c3 bc ed ec b4 bb 73 e3 0f bd
       0.089826174 -0.023852736 -0.005521408 -0.03512902
000140 39 cf 17 bd 50 dd 50 bd 6a 5f 52 3d 93 2e 10 3e
       -0.037062857 -0.05099231 0.051360525 0.14080267
000150 cd 21 02 bd 32 df a3 bc e6 c1 a2 bd c7 71 e8 3c
       -0.031770516 -0.020003889 -0.079471394 0.028374566
000160 3f 98 d0 3c 57 20 0c bd 89 87 7f be da 7d 29 3e
       0.025463222 -0.03421053 -0.24954046 0.16551915
000170 20 cc 96 bd 79 32 cc 3d dd ff 7a 3d c6 a1 e7 bd
       -0.073631525 0.099705644 0.061279166 -0.11310153
000180 35 92 06 3e 7a 15 0a 3e a3 cf b8 bb f4 5a fe bd
       0.13141711 0.13484755 -0.0056399866 -0.12419692
000190 e2 ff 8f 3d e7 cd 0f bd 43 fe 7f 3d 81 5a 04 3e
       0.07031228 -0.035108473 0.062498342 0.1292515
0001a0 dd 62 e2 bd 13 27 14 be e1 4c e4 3a ee af db 3d
       -0.11054013 -0.1446803 0.0017417931 0.10726915
0001b0 39 a4 0b 3d 7d 1c 6d bc ac 24 d2 3d 9f a0 ca bc
       0.03409216 -0.014472124 0.10260901 -0.024734793
0001c0 1b 5d 71 bd 4b c0 f2 bc 40 0a f4 3d de ee 70 bd
       -0.058926683 -0.029632708 0.119160175 -0.05882155
0001d0 0d 77 7b 3c b9 be ae 3d 4d f8 6a 3c 94 2d e2 3d
       0.015348208 0.08532471 0.014341426 0.110438496
0001e0 13 8b ca bd 6f 80 99 3d 69 93 4b bd 02 e4 ec 3c
       -0.098898076 0.074952 -0.04970113 0.028917316
0001f0 72 71 36 bc 01 c8 52 3b 5f 10 ed 3d b3 b7 a6 3c
       -0.011135446 0.0032162669 0.11575388 0.020351266
000200 bd 59 4b 3e f4 60 cd bd 78 d5 05 3d c3 84 0f 3e
       0.19858451 -0.10028258 0.032674283 0.14015488
000210 3e 60 37 3d 30 b0 05 bd bb c7 92 3d 8b b7 a4 3d
       0.044769518 -0.03263873 0.07167002 0.080428205
000220 81 36 fc 3d 06 59 8e bd d6 09 5e 3d d3 d9 9a bd
       0.12315083 -0.069505736 0.0542086 -0.07561078
000230 25 39 71 bd a2 07 1b 3e 3c 9c 44 3d fb 32 be 3d
       -0.058892388 0.1513963 0.04800056 0.092870675
000240 6a a5 6e 3d bd 04 17 3e a0 d1 9b 3d 91 73 0e bd
       0.05826322 0.14747901 0.07608342 -0.03477818
000250 a1 38 43 3d 0a 19 11 3c 15 25 f3 3c 2a 1f 18 bd
       0.047661427 0.008856067 0.029680768 -0.037139095
000260 a3 f6 9d bc 85 7f 11 be 11 7c 92 3d 15 65 3b 3d
       -0.019282645 -0.14208801 0.0715257 0.045750696
000270 6b 86 9d bd a6 8f 60 3c 32 2d 22 be 86 32 69 3d
       -0.07691654 0.013706123 -0.15837553 0.05693295
000280 10 4c 09 3c ab 29 92 bd bd 73 17 3d ca 72 1c bd
       0.008379951 -0.07136854 0.03697561 -0.03819541
000290 b3 35 60 bd cd 7e 1e 3d 25 66 c3 bc e3 35 4b 3d
       -0.05473871 0.038695145 -0.023852417 0.049611937
0002a0 5f cd ef 3c 84 a8 15 3d 6d 66 d0 3c 60 25 96 bd
       0.029272733 0.036537662 0.025439465 -0.073313475
0002b0 2a 31 98 3d 7a db 42 bb 49 bd 4f 3d 86 03 95 3d
       0.07431252 -0.002973287 0.050717626 0.07276063
0002c0 a3 1a fc 3c 74 25 f4 3d 18 35 22 bd 63 4e 14 3d
       0.03077442 0.11921206 -0.039601415 0.036207568
0002d0 e1 a6 55 bc cf 84 57 3d 74 0f eb ba 3e 61 85 3c
       -0.013040275 0.05261689 -0.0017933683 0.01628172
0002e0 09 2b 5a 3b 4a c1 87 bd a9 19 98 3c 2a 40 19 bd
       0.003328981 -0.06628664 0.018566923 -0.037414707
0002f0 03 1a 41 bc 01 cd 00 be 6a 97 4e 3e fb 26 3a 3e
       -0.011785987 -0.12578203 0.20174947 0.18178932
000300 1a f7 c0 3d 62 4b 21 3e 02 e5 07 3e 00 1e 62 3e
       0.09422131 0.15751413 0.13270953 0.22081757
000310 7b e3 cb bb c7 ea 70 3d 65 92 03 3e 1e a5 b1 bd
       -0.006222186 0.05881765 0.12848814 -0.08674072
000320 3f 35 4a 3d ac f7 ce 3d e8 c3 5a bc d6 ec ee 3d
       0.049367186 0.101058334 -0.013352372 0.116662666
000330 8b 00 0f bd c7 0e c8 3d 84 72 17 3e 05 1c b5 bd
       -0.034912627 0.097684436 0.14789778 -0.08843235
000340 93 68 29 3c aa ee 64 bd ba 0c e3 3b 0e 9c 42 3d
       0.010339874 -0.05589167 0.0069290074 0.047512107
000350 88 19 93 3d dc 62 ad be fb b6 63 bb 66 5f e4 3d
       0.07182604 -0.33864486 -0.0034746516 0.11151008
000360 ed 70 cf bd 2f af 2a 3e 1b a4 c7 bc 27 67 88 3e
       -0.10128961 0.1666839 -0.024370244 0.266412
000370 0e f4 09 be 31 39 d7 3c 6d 2c 53 bc 82 4a 44 bc
       -0.13472006 0.026272388 -0.01288901 -0.011980655
000380 98 6f af bc 6d f5 15 3d f7 78 ba bd 6f f0 cd 3d
       -0.021415517 0.03661101 -0.091051035 0.10055625
000390 4f 17 ac bd a8 fa 9d 3d 10 c8 14 3c a6 5b 02 3d
       -0.08402883 0.077138245 0.009080902 0.031825684
0003a0 5f 2b 71 bd 87 d4 71 bc 00 37 3f 3e af 61 bd 3d
       -0.058879253 -0.014760143 0.18673325 0.09247147
0003b0 de 7e c5 3b 1c 4c 57 be 68 9c 00 bd 7c c8 04 bd
       0.0060270866 -0.21025127 -0.03139916 -0.03241776
0003c0 aa 92 37 bd eb 58 1b 3d da 29 ed bd 3c 6b a1 3c
       -0.044817604 0.037926596 -0.11580248 0.019704454
0003d0 42 d7 d0 bd 73 50 ad 3d de 3e a1 3d 14 32 92 3d
       -0.10197307 0.0846261 0.07873319 0.07138458
0003e0 4b f8 7f be 26 c0 91 be 8d f3 1c be 16 b1 27 3e
       -0.2499706 -0.2846691 -0.15327282 0.16376147
0003f0 e3 02 e2 3c 4b c6 08 3e b3 41 a0 3b b5 23 05 3c
       0.027589267 0.13356893 0.0048906445 0.008126189

linear.bias f4 [15]
000000 98 3b 41 40 5c ef bf 3f ee 46 b3 3f 70 5b 4e 3f
       3.0192623 1.4994922 1.4006021 0.8060827
000010 68 47 22 3f ac 1c 61 3e 99 a6 3d bd cc 3e 90 be
       0.6339021 0.21983594 -0.046301458 -0.2817291
000020 16 ff 20 bf 10 74 64 bf 78 d3 63 bd 8a 9b 6c bf
       -0.6288923 -0.892396 -0.055621594 -0.92424834
000030 30 d8 bf bf d1 ec d5 bf cc 56 ba bf
       -1.498785 -1.6712896 -1.4557738
