Assignment 2/model_fold_0.pth (torch, 25398 bytes, 2 tensors)

linear.weight f4 [15, 396]
-0.12248346 0.18039602 0.027515102 0.01641609 0.08172889 0.08442277 0.16356121 -0.002132414
0.18413928 -0.065658286 0.17563203 0.09502494 -0.25707364 0.03008075 0.004616106 0.046245433
-0.07535257 0.10543047 0.20018016 0.18082319 -0.20329876 -0.064957656 0.18327758 0.036576405
0.106503665 0.5207464 0.21262218 0.16429403 -0.3726852 -0.36971545 -0.19903398 0.04502731
0.11520735 0.11280174 0.07614805 0.06875507 0.113823235 -0.05330834 0.18489668 0.028285237
0.2569498 0.12755127 0.18383302 -0.08333499 -0.17196245 0.09325943 0.08888859 0.037069038
0.0925889 0.05071582 -0.008395146 -0.05031616 0.15721719 -0.0019674639 0.022156086 0.116055764
0.1359141 0.058158286 -0.019686176 -0.3937772 -1.0294783 0.16613922 0.018125547 -0.19975293
0.044387877 -0.0047504026 0.043043338 -0.1617264 0.09164267 0.1288586 -0.040068056 -0.028280037
0.014666003 0.0148474425 -0.06267615 -0.053180188 0.066798516 -0.03793859 0.058853332 0.02496762
-0.04464813 -0.033533297 0.0061287056 0.07487485 -0.0067581283 -0.06068744 -0.035445873 0.061982684
0.0047133705 -0.10881742 -0.26655108 0.09458255 -0.15221478 0.06375368 0.039932907 -0.07454451
0.061872374 0.070616536 -0.017729439 -0.19549455 0.08869279 -0.0057009817 0.048323322 0.04265922
-0.028923988 -0.10957717 0.092345834 0.123433605 0.044665087 0.015560707 0.04813632 0.037399177
0.0035168591 0.045053832 0.09399299 -0.029863257 0.030399524 0.07653705 0.044667996 0.107620634
-0.057051904 0.061900273 -0.052458186 -0.018385764 0.046943557 0.08993655 0.16297941 -0.026635656
0.14576477 -0.06721726 0.035404757 0.07874798 0.07757178 -0.05901623 0.12366001 0.067701325
0.09406239 -0.0518207 0.061317466 -0.032219708 -0.045850836 0.09570725 0.06743223 0.0014179471
-0.019617625 0.1640493 0.0949661 -0.037124354 0.014517157 0.08967324 0.0732463 0.033696003
-0.06681804 -0.0643178 0.029319545 -0.0070683914 0.019496514 -0.049170677 -0.04641909 0.08575602
-0.040963173 -0.012754235 -0.0074731633 0.016079478 0.09127567 0.03589046 -0.1006185 0.0498499
0.021136161 0.09729732 -0.07968561 -0.100286685 -0.04121636 -0.022032257 0.013505791 0.12191158
0.050768632 -0.04778584 -0.032461118 -0.029024635 0.067399845 -0.02381428 -0.0032147572 -0.06999547
0.106304675 0.0068101594 -0.014634884 -0.18205786 -0.07352146 -0.09185247 0.12241341 0.14694144
0.17382812 0.10042189 0.029427424 0.19552095 0.059998825 -0.027376153 0.07932767 -0.03651879
-0.08482087 0.0382793 -0.02241039 0.10346912 -0.13262966 0.05425138 0.17724979 -0.08999609
0.045450784 -0.048756845 0.054699536 0.0493893 0.12927128 -0.29007375 0.06686293 0.06515932
-0.061057743 0.16936626 0.005568086 0.25151375 -0.14002287 -0.056532577 0.015758893 -0.030431798
-0.04587148 0.122290865 -0.057803497 0.1192325 -0.11911376 0.039901458 0.010123215 0.092359394
-0.0027368045 -0.02453626 0.17770012 0.03885966 -0.019373083 -0.22536364 0.021072518 -0.06337442
-0.038893826 0.10189445 -0.16679725 -0.011127954 -0.12868431 0.05176904 0.07421929 0.051347923
-0.24901891 -0.24587703 -0.10840879 0.17654158 0.1071141 0.09516272 -0.04005414 -0.06708035
00000000: 9cd8 fabd bcb9 383e 5a67 e13c 097b 863c
00000010: 7a61 a73d d8e5 ac3d 977c 273e f8bf 0bbb
00000020: 028f 3c3e da77 86bd e2d8 333e 709c c23d
00000030: 289f 83be e86b f63c b442 973b da6b 3d3d
00000040: 7352 9abd eeeb d73d 07fc 4c3e b729 393e
00000050: 8d2d 50be 8508 85bd 1ead 3b3e 24d1 153d
00000060: 981e da3d a34f 053f a1b9 593e b23c 283e
00000070: 98d0 bebe 584b bdbe 90cf 4bbe 8e6e 383d
00000080: d5f1 eb3d 9904 e73d 82f3 9b3d 75cf 8c3d
00000090: 281c e93d d959 5abd 8e55 3d3e 71b6 e73c
000000a0: ed8e 833e cd9c 023e b93e 3c3e 89ab aabd
000000b0: ed16 30be cdfe be3d 390b b63d b4d5 173d
000000c0: 409f bd3d 64bb 4f3d cb8b 09bc 5118 4ebd
000000d0: 8bfd 203e 91f0 00bb ae80 b53c a5ae ed3d
000000e0: 112d 0b3e 6237 6e3d e744 a1bc 2a9d c9be
000000f0: f2c5 83bf 6620 2a3e 077c 943c 088c 4cbe
00000100: 10d0 353d 44a9 9bbb 364e 303d 9b9b 25be
00000110: 27af bb3d 82f3 033e 671e 24bd 89ab e7bc
00000120: ad49 703c b042 733c 5a5c 80bd 78d3 59bd
00000130: a9cd 883d 7f65 1bbd 3110 713d e588 cc3c
00000140: f5e0 36bd 365a 09bd 4fd3 c83b fc57 993d
00000150: 4a73 ddbb 6593 78bd b12f 11bd 8ee1 7d3d
00000160: 9e72 9a3b abdb debd 6279 88be 7fb4 c13d
00000170: 31de 1bbe 4a91 823d b090 233d cbaa 98bd
00000180: e36d 7d3d 679f 903d 543d 91bc b92f 48be
00000190: 91a4 b53d 4dcf babb adee 453d 6fbb 2e3d
000001a0: 00f2 ecbc ff69 e0bd d01f bd3d c2ca fc3d
000001b0: bdf2 363d 56f2 7e3c 972a 453d e12f 193d
000001c0: 1b7b 663b 5e8a 383d 667f c03d caa3 f4bc
000001d0: 6c08 f93c 75bf 9c3d caf5 363d 3568 dc3d
000001e0: 42af 69bd 248b 7d3d 65de 56bd be9d 96bc
000001f0: e347 403d a730 b83d 13e4 263e 0533 dabc
00000200: 5c43 153e 34a9 89bd 9404 113d 9f46 a13d
00000210: f4dd 9e3d 01bb 71bd 7641 fd3d fea6 8a3d
00000220: c8a3 c03d f141 54bd 0628 7b3d d0f8 03bd
00000230: 16ce 3bbd 2a02 c43d e919 8a3d 69da b93a
00000240: 24b5 a0bc 8afc 273e 967d c23d b50f 18bd
00000250: 5fd9 6d3c 9ba6 b73d 2802 963d d204 0a3d
00000260: e6d7 88bd 0db9 83bd 8b2f f03c f79d e7bb
00000270: 27b7 9f3c 3167 49bd f221 3ebd daa0 af3d
00000280: 00c9 27bd 24f7 50bc 70e1 f4bb 1cb9 833c
00000290: bdee ba3d e001 133d 1211 cebd 692f 4c3d
000002a0: be25 ad3c d143 c73d 3632 a3bd 1b63 cdbd
000002b0: 7cd2 28bd fe7c b4bc 6547 5d3c c7ac f93d
000002c0: c5f2 4f3d 16bb 43bd f3f5 04bd 12c5 edbc
000002d0: ee08 8a3d 2a16 c3bc adae 52bb c959 8fbd
000002e0: 44b6 d93d c227 df3b 27c7 6fbc 606d 3abe
000002f0: 6b92 96bd 261d bcbd e2b3 fa3d d177 163e
00000300: 0000 323e fea9 cd3d c811 f13c a536 483e
00000310: 54c1 753d f443 e0bc 8c76 a23d ba94 15bd
00000320: 90b6 adbd c1ca 1c3d ff95 b7bc 9ee7 d33d
00000330: 12d0 07be b236 5e3d f880 353e df4f b8bd
00000340: 9a2a 3a3d 42b5 47bd 9f0c 603d 6f4c 4a3d
00000350: b15f 043e 8c84 94be 6fef 883d 4072 853d
00000360: af17 7abd 596e 2d3e 7e74 b63b 69c6 803e
00000370: 2862 0fbe b48e 67bd cb18 813c 1b4c f9bc
00000380: bce3 3bbd a273 fa3d 5cc3 6cbd 2b30 f43d
00000390: eaf1 f3bd b66f 233d d7db 253c ec26 bd3d
000003a0: f65b 33bb 4400 c9bc 05f7 353e 4f2b 1f3d
000003b0: 4db4 9ebc bac5 66be 46a0 ac3c 73ca 81bd
000003c0: 224f 1fbd 0aae d03d e6cc 2abe 0652 36bc
000003d0: d2c5 03be c60b 543d 4800 983d 3352 523d
000003e0: d0fe 7ebe 30c7 7bbe 6d05 debd 51c7 343e
000003f0: a35e db3d ace4 c23d cf0f 24bd 6c61 89bd

linear.bias f4 [15]
3.0244238 1.3103504 1.2782481 0.8941465 0.64772874 0.3013949 -0.1534734 -0.19821484
-0.73811597 -0.7925807 -0.17961256 -1.0622562 -1.4181821 -1.5249059 -1.4725454
00000000: 2990 4140 90b9 a73f a29d a33f c9e6 643f
00000010: 8dd1 253f 6f50 9a3e 2228 1dbe d5f8 4abe
00000020: 2bf5 3cbf 92e6 4abf 5bec 37be 03f8 87bf
00000030: fe86 b5bf 1e30 c3bf 5e7c bcbf
