Assignment 2/model_fold_1.pth (torch, 25398 bytes, 2 tensors)

linear.weight f4 [15, 396]
-0.074283265 0.08430276 -0.05539452 -0.1525131 0.055480894 0.07117598 0.1963232 -0.095477544
0.1726924 -0.062525295 0.16742665 0.080192015 -0.20263618 0.040582724 -0.019255033 0.0671179
-0.09919156 0.14559735 0.18519069 0.18391255 -0.18550389 -0.14110363 0.22324206 0.03527426
0.11956898 0.5129598 0.2214024 0.15163054 -0.07999373 -0.11831172 -0.1990085 0.014628687
0.1198146 0.12772438 0.05830174 0.019226043 0.13548478 0.05974474 0.24739921 -0.0007203631
0.27408442 0.11749424 0.20976624 -0.054997515 -0.11183945 0.041596595 0.046985753 0.0038759934
0.0070315157 0.030816665 0.005040649 -0.039722037 0.16152358 -0.03413078 -0.0031122826 0.13735795
0.03099819 0.091325924 0.020549333 -0.3674895 -1.0632652 0.16149266 0.09528036 -0.16327421
0.052676305 -0.06336338 0.0011859656 -0.074169636 0.09997417 0.11728292 -0.049391568 0.034306884
-0.010061195 0.0203945 -0.11954429 0.013005391 0.042328745 0.024044413 0.03910207 0.039147932
0.00586139 -0.023528032 0.020412352 0.11726337 -0.011792497 -0.059249297 -0.012470406 0.0776274
-0.04044515 -0.1665775 -0.30637714 0.15616027 -0.13800387 0.109541066 0.06265223 -0.005087141
0.032119587 0.037306488 -0.03766371 -0.12665872 0.05250941 -0.06137589 0.11406648 0.09321698
-0.074718095 -0.085416704 0.03866033 0.055061392 0.06225107 0.0062398557 0.07603557 -0.065166555
-0.0649065 0.0069353054 0.12019897 -0.023575665 0.073937625 0.048450753 0.030609222 0.10575835
0.014000471 0.07885991 -0.0015455257 -0.0148763545 0.09254108 -0.034967806 0.072053894 0.029468274
0.169541 -0.12935007 0.023966253 0.038164187 0.067909054 -0.094404824 0.105068594 0.07523851
0.038416985 -0.004659833 0.013441423 -0.12896356 -0.022381144 0.15140358 -0.00015491227 0.0136238
0.06611435 0.09175783 0.07684593 -0.090572484 -0.023394674 0.08175568 0.07894652 -0.015266523
-0.014270184 -0.031068396 0.0663067 -0.042902473 0.03169138 -0.029500106 -0.016165014 0.021022854
-0.04088015 -0.06369687 0.08867175 0.00024674484 -0.009724173 0.05314198 -0.07412338 0.054973625
0.064905584 0.0443732 0.059525765 -0.12988205 -0.0013210666 0.021557728 -0.0346757 0.09813602
0.11583028 -0.037313852 -0.030342054 0.049028724 0.039778225 0.06317295 0.03515871 -0.017203595
-0.12570785 -0.03349697 0.029299475 -0.10831174 -0.05159481 -0.1145577 0.10207291 0.10144734
0.075538985 0.107349895 0.008981191 0.17773175 -0.042303976 -0.04431785 0.12814792 0.0006286629
0.0016325588 0.061114974 0.009619437 0.12455825 -0.082467474 0.06715432 0.20699012 -0.059315212
0.04422437 -0.02941713 0.034309894 0.0489941 0.055646166 -0.26655546 -0.002616859 0.015556111
-0.014609845 0.1886715 -0.05015245 0.27433616 -0.13033062 -0.092896506 -0.027468393 0.0025829652
-0.04912508 0.055884726 -0.06278128 0.15662487 -0.12371679 0.06048735 -0.080917366 0.03032271
-0.057101816 -0.088862255 0.10575454 -0.009834726 0.0066350475 -0.226514 0.04088357 -0.00027725723
-0.107388735 0.04729486 -0.18919165 -0.0020099771 -0.17477137 0.09116365 0.038220655 0.10552011
-0.1907749 -0.17342749 -0.077855505 0.11536886 0.011083764 0.07494047 0.015474511 -0.07285736
00000000: d321 98bd eda6 ac3d 5de5 62bd 652c 1cbe
00000010: ef3f 633d b6c4 913d f308 493e bb89 c3bd
00000020: 47d6 303e 430d 80bd e471 2b3e b63b a43d
00000030: dc7f 4fbe 123a 263d bbbc 9dbc 1c75 893d
00000040: f224 cbbd 7917 153e a1a2 3d3e 9253 3c3e
00000050: bbf4 3dbe 787d 10be 9199 643e be7b 103d
00000060: 95e0 f43d 5551 033f 50b7 623e 0945 1b3e
00000070: c1d3 a3bd 6a4d f2bd e2c8 4bbe 29ad 6f3c
00000080: 5b61 f53d 2eca 023e cecd 6e3d ef7f 9d3c
00000090: 86bc 0a3e e7b6 743d 3856 7d3e c0d6 3cba
000000a0: cb54 8c3e d2a0 f03d f6cc 563e 1345 61bd
000000b0: 150c e5bd 3161 2a3d 2274 403d 6104 7e3b
000000c0: a168 e63b 3b73 fc3c 072c a53b 93b3 22bd
000000d0: 7066 253e b7cc 0bbd 70f7 4bbb 90a7 0c3e
000000e0: ebef fd3c 1609 bb3d 1357 a83c 9527 bcbe
000000f0: 1319 88bf 555e 253e 5922 c33d 5b31 27be
00000100: 1cc3 573d a9c4 81bd 6772 9b3a 40e6 97bd
00000110: 42bf cc3d 0732 f03d d04e 4abd 6085 0c3d
00000120: b6d7 24bc 5e12 a73c a3d3 f4bd 9014 553c
00000130: e860 2d3d caf8 c43c 7e29 203d 9559 203d
00000140: e710 c03b dcbd c0bc ce37 a73c c727 f03d
00000150: 5135 41bc 64af 72bd ac50 4cbc 1dfb 9e3d
00000160: d0a9 25bd 4b93 2abe 77dd 9cbe 7ae8 1f3e
00000170: e350 0dbe 1157 e03d d04f 803d 08b2 a6bb
00000180: d48f 033d b0ce 183d 4345 1abd d3b2 01be
00000190: 1b14 573d 4965 7bbd b09b e93d 8be8 be3d
000001a0: cd05 99bd f4ee aebd 4b5a 1e3d 0e88 613d
000001b0: fafa 7e3d b477 cc3b 89b8 9b3d 0b76 85bd
000001c0: b3ed 84bd 8f41 e33b e12a f63d c121 c1bc
000001d0: 9c6c 973d 4c74 463d 31c0 fa3c d597 d83d
000001e0: 3b62 653c 4e81 a13d 3d93 caba f4bb 73bc
000001f0: 2e86 bd3d 673a 0fbd fe90 933d 7367 f13c
00000200: 289c 2d3e 5874 04be e054 c43c 0d52 1c3d
00000210: e713 8b3d 5157 c1bd 342e d73d a616 9a3d
00000220: 215b 1d3d 83b1 98bb 6a39 5c3c 060f 04be
00000230: a958 b7bc 8a09 1b3e f26f 22b9 5c36 5f3c
00000240: f666 873d 87eb bb3d 6661 9d3d 117e b9bd
00000250: 30a6 bfbc 866f a73d b7ae a13d 7020 7abc
00000260: 7dcd 69bc 2683 febc cfcb 873d 81ba 2fbd
00000270: d2ce 013d 35aa f1bc 7e6c 84bc 1f38 ac3c
00000280: f271 27bd 8173 82bd 8999 b53d 885d 8139
00000290: 2352 1fbc 68ab 593d 00ce 97bd 062c 613d
000002a0: 38ed 843d acc0 353d 4ad1 733d cdff 04be
000002b0: a427 adba d599 b03c 1b08 0ebd 8afb c83d
000002c0: 6d38 ed3d 69d6 18bd e68f f8bc 58d2 483d
000002d0: 7eee 223d d260 813d 9402 103d 8eee 8cbc
000002e0: 8fb9 00be 1e34 09bd 7405 f03c 8cd2 ddbd
000002f0: 1455 53bd 3a9d eabd 9a0b d13d 9fc3 cf3d
00000300: 2fb4 9a3d 43da db3d d825 133c 50ff 353e
00000310: ef46 2dbd a286 35bd 3539 033e dacc 243a
00000320: 95fb d53a b253 7a3d d89a 1d3c 6518 ff3d
00000330: b5e4 a8bd 3488 893d 38f5 533e 82f4 72bd
00000340: 9d24 353d 31fc f0bc 8888 0c3d 0aae 483d
00000350: 3ced 633d f579 88be 9c7f 2bbb 0fdf 7e3c
00000360: 225e 6fbc 1a33 413e a86c 4dbd ca75 8c3e
00000370: 6475 05be 8640 bebd 6505 e1bc f746 293b
00000380: 6137 49bd 62e7 643d 7993 80bd 4562 203e
00000390: 3a5f fdbd 95c1 773d 01b8 a5bd 5567 f83c
000003a0: 98e3 69bd 6afd b5bd d695 d83d d521 21bc
000003b0: d06a d93b 49f3 67be 8875 273d d65c 91b9
000003c0: a0ee dbbd 41b8 413d 75bb 41be d2b9 03bb
000003d0: 44f7 32be 02b4 ba3d 438d 1c3d ed1a d83d
000003e0: 7f5a 43be fa96 31be b572 9fbd 8246 ec3d
000003f0: ad98 353c 647a 993d ce88 7d3c 3d36 95bd

linear.bias f4 [15]
3.0237448 1.3713456 1.3448446 0.8246069 0.56941587 0.22474675 0.03900166 -0.22530577
-0.74721664 -0.83697677 -0.22366565 -0.9932258 -1.404189 -1.5019768 -1.5596387
00000000: 0985 4140 4188 af3f de23 ac3f 7019 533f
00000010: 3dc5 113f 0324 663e 34c0 1f3d 8eb6 66be
00000020: 9749 3fbf 1c44 56bf 9c08 65be 0c44 7ebf
00000030: 77bc b3bf c740 c0bf 3ea2 c7bf
