Assignment 2/model_weight_decay_0.0010.ckpt (torch, 25540 bytes, 2 tensors)

linear.weight f4 [15, 396]
00000000: 0ffd 90bb 3ae1 3eba b054 8b39 a64c 96ba
00000010: fa6a 993b e755 523a 28d0 af3b 7498 46bb
00000020: f76d 2b3b 5c61 13bb 22d9 fdba 6184 d73a
00000030: bbc9 41bb 55c9 9fba 1ee1 8eb7 84e9 4a3a
00000040: 7ab8 16bb d35c b2b8 3d84 9b3b 173a 213c
00000050: 1704 5ebb a6a9 47bb bfba 723b 2be7 26ba
00000060: 4a05 90ba 5577 2e3c 5bee 2a3b 2583 7c3b
00000070: 9e68 11bb 417f 28bb 00a8 7ebb c7c2 55b9
00000080: fd67 5a3b e5b0 62ba 436f dcba b3fc ca39
00000090: 4623 8aba abc7 3fbb 308f a63b dfce a63a
000000a0: 47e4 7c3b 5042 47b8 f2d2 1aba 963d 2dbb
000000b0: b087 9dba e3ff bc39 3c51 153b 056c 3a3b
000000c0: 0292 88b9 4414 acba ccee 39b9 c150 f9b9
000000d0: c1d4 393b bfac db3a e26e 6bba d884 75ba
000000e0: bca5 283a 9b8b 873b c610 60ba e7ac a0bb
000000f0: 0df7 67bc 06c9 b7ba 7f67 c93a fc73 04bc
00000100: b295 76bb 2a3d 60bb 7fda cbba 3758 33bb
00000110: b584 46bb 366d 5f39 2446 59bb 225a f0ba
00000120: 4317 bbbb d4cb a83b 77b7 f2bb c11b 0abb
00000130: 241d a6ba 5d8e 4a3b 6750 0bbb f066 803b
00000140: 4958 12ba 7cc6 9d3b 6850 51bb ea6a 963b
00000150: 98b6 84bb a2f4 9bba d8de 21b9 7db2 d33a
00000160: 4c6f 9fba 7262 a3bb fdb7 83bb 73a7 09bb
00000170: e883 a6bb e4fa 383a e193 073b 5f4e ce3a
00000180: e040 fa3a fc30 d03a e4b1 a5ba 5fed f3bb
00000190: 9c09 3e3b 87a1 213b 7e91 b1b8 398a cbba
000001a0: 2ed4 12bb 5e60 5bbb 0095 a6bb 3130 733b
000001b0: 8486 8cbb 8ebd b33a a78c 21b9 e23f 0939
000001c0: 80da 573a 3f76 b0bb 397a 0c3b eaa7 0cba
000001d0: bcbf 88ba 9ca5 e9ba 5309 02b9 a370 393a
000001e0: a1d6 853a f2f4 b13a 89c2 083b 98ae 4bbb
000001f0: b090 58bb 843e 9a3a 3b2e b23a b8ce 9b3a
00000200: a8f1 8a3b 5659 81bb ce9c d439 1f26 183b
00000210: 6b4f 8e3a a6ec 22bb c255 4b3a b93a a2b8
00000220: 3e17 a3bb 263e 9ebb bfaa 00bb 41ea c23a
00000230: d9f1 a2ba e476 823b 5948 edba 7ca7 163b
00000240: 0ba3 82ba 6e34 4dbb 0fdd 973a 0ab3 48bb
00000250: c3eb 7bba 7537 a8ba 3bce 23bb 221b 88bb
00000260: cfe8 53bb 4303 95bb 82d3 5dbb c505 02bb
00000270: 3858 44bb 0a7e 00bb 2a3e cfba 2b7f 50bb
00000280: 96c4 1eba db96 a9ba 3654 57bb fd8c b9bb
00000290: 7495 eeba 4db1 16bb 28bd 45bb 1f15 74bb
000002a0: f153 28bb 898a ebba 06af 6dbb fb7c 1abb
000002b0: 82fe 22ba 01ec b2b7 edc2 23bb 38ee fd38
000002c0: 19a4 d8ba 0297 82bb fcaa 27bb 7831 3cbb
000002d0: 1892 b7ba 9878 37bb 8df3 aeba 353b 47bb
000002e0: d4ff 8abb 74a0 afba ed24 cbba c7c0 8aba
000002f0: da75 8fbb 114c 6abb 59af ee3a 56dd 84b7
00000300: 413a a03a 7005 233b e1c1 5ebb fde8 9e3b
00000310: d50e c5ba 2f41 87bb fa49 3aba bc69 263b
00000320: 0495 b639 f995 efb9 0e1b 1fbb 9b33 51bb
00000330: 0c4c 4f38 a492 cb3a 1925 b23b 1b7e da3a
00000340: 4701 c33a bb95 8fbb 3831 eeba 86fe ec3a
00000350: 09a1 9d3a 51ab b4bb cf67 723a 03c8 81bb
00000360: e32f 423a 512f 3a3b 613e c03a 5169 b73a
00000370: 1fdd c8ba 1481 23bb 4602 efba c5a7 853b
00000380: a228 00ba 9995 5aba 5c1a 0c3b d4ac f13a
00000390: 80df 71bb 6a68 503b a5ca 06ba 3499 86b9
000003a0: fc54 fa3a f911 12ba fa39 b039 53d4 353c
000003b0: f5e1 233a 875a 46bc ffe9 8bba a073 613a
000003c0: 2ad4 bdbb e03b 91bb 1bd6 0bbc 49b8 d6bb
000003d0: 61ae f1bb a30f ae3a b650 c73b d736 923a
000003e0: c556 00bc d7d6 35bb b837 c9bb 6a41 073b
000003f0: e108 163b a002 ba3a c8ea b23a 7f78 8a3a
-0.004424698 -0.0007281486 0.00026575243 -0.0011466935 0.004681942 0.00080236647 0.0053653903 -0.0030303271
0.0026158073 -0.002248845 -0.0019367079 0.001644265 -0.0029569704 -0.0012190739 -1.7032547e-05 0.0007740485
-0.002299814 -8.504991e-05 0.0047459886 0.00984051 -0.003387695 -0.0030466109 0.003703758 -0.0006366844
-0.0010987904 0.010648568 0.0026082012 0.0038530317 -0.00221876 -0.0025710615 -0.003885746 -0.00020385823
0.0033326142 -0.0008647575 -0.0016817827 0.00038716718 -0.0010539077 -0.0029263298 0.0050829872 0.0012726447
0.0038588212 -4.7507056e-05 -0.0005906067 -0.0026434413 -0.0012018587 0.00036048805 0.0022784015 0.0028445732
-0.00026048726 -0.0013128598 -0.00017731934 -0.00047553147 0.002835557 0.0016759856 -0.00089810614 -0.00093658036
0.0006433388 0.0041365153 -0.00085474213 -0.004903424 -0.014158023 -0.0014021702 0.0015365927 -0.008084293
-0.0037625846 -0.0034216144 -0.0015552788 -0.0027365813 -0.0030291502 0.00021307622 -0.003315338 -0.0018337409
-0.00570956 0.0051512513 -0.0074071246 -0.0021073672 -0.001267348 0.003090761 -0.002125764 0.003918521
-0.00055826135 0.004814921 -0.0031938795 0.004590382 -0.004050087 -0.0011898468 -0.00015437172 0.0016151216
-0.0012163906 -0.004986101 -0.004019736 -0.0021004349 -0.0050816424 0.00070564286 0.0020687508 0.0015739909
0.0019092821 0.0015883739 -0.0012641517 -0.0074440683 0.0028997427 0.0024662928 -8.467118e-05 -0.0015528864
-0.00224043 -0.0033474187 -0.00508368 0.0037107582 -0.0042884964 0.0013713108 -0.00015406554 0.00013089136
0.0008234158 -0.00538519 0.0021435155 -0.00053655973 -0.0010433118 -0.0017825845 -0.0001240124 0.0007073974
0.0010211059 0.0013577028 0.0020867905 -0.0031079408 -0.0033045225 0.0011767899 0.00135941 0.0011887169
0.0042402335 -0.0039474173 0.0004055262 0.0023216081 0.0010857409 -0.0024860292 0.00077566144 -7.7357e-05
-0.004977136 -0.004829186 -0.0019633023 0.0014870838 -0.0012431695 0.003981458 -0.0018103226 0.0022988012
-0.0009966803 -0.0031311768 0.0011586266 -0.0030624294 -0.00096100214 -0.001283391 -0.002499475 -0.004153625
-0.003233481 -0.004547508 -0.0033847992 -0.0019839865 -0.002995981 -0.0019606375 -0.0015811373 -0.003181408
-0.0006056515 -0.0012938635 -0.003285659 -0.005662559 -0.00182025 -0.0022993863 -0.003017256 -0.0037244034
-0.0025684799 -0.0017970364 -0.0036267652 -0.002357303 -0.0006217734 -2.1329151e-05 -0.002498801 0.00012108352
-0.0016528397 -0.0039852867 -0.0025584092 -0.002871601 -0.0014005331 -0.0027995463 -0.001334773 -0.003040028
-0.004241923 -0.0013399259 -0.0015498676 -0.0010586017 -0.0043780627 -0.0035750906 0.0018210217 -1.5838694e-05
0.0012224392 0.0024875067 -0.0033990073 0.0048495517 -0.0015034328 -0.0041276435 -0.000710636 0.0025392612
0.0003482477 -0.0004569737 -0.00242776 -0.0031921628 4.942347e-05 0.0015531373 0.0054365513 0.0016669662
0.00148777 -0.004381863 -0.0018172627 0.0018081225 0.0012026142 -0.0055135866 0.0009247036 -0.003960611
0.00074076484 0.002840955 0.0014667028 0.0013993179 -0.0015324688 -0.0024948763 -0.001823493 0.0040788376
-0.0004888867 -0.0008338332 0.0021378016 0.0018438348 -0.0036906898 0.0031800517 -0.0005141891 -0.00025672617
0.0019098814 -0.0005572136 0.00033612532 0.011097985 0.0006251627 -0.012106544 -0.0010674595 0.00086002983
-0.005793114 -0.0044321865 -0.008534933 -0.00655273 -0.007375524 0.0013279807 0.0060826195 0.001115526
-0.0078331875 -0.0027746463 -0.0061406754 0.0020638355 0.0022893476 0.0014191456 0.0013650293 0.0010564475

linear.bias f4 [15]
00000000: 17a9 fb3c 3bed 243b 3812 a83a 3efb 7438
00000010: 40db abba 19e6 02bb 177d 47bb 409b 59bb
00000020: db81 81bb 4755 62bb 0641 5aba 9d4c 86bb
00000030: 5f54 64bb 1bf4 84bb eeb3 a4bb
0.030720277 0.0025165814 0.0012822812 5.840812e-05 -0.0013111606 -0.0019973575 -0.003043955 -0.0033204108
-0.0039522476 -0.0034535693 -0.0008325729 -0.0040984885 -0.0034840328 -0.00405742 -0.005026332
