Assignment 2/model_fold_3.pth (torch, 25398 bytes, 2 tensors)

linear.weight f4 [15, 396]
00000000: a9b0 1fbe b0b2 9e3d 22c3 c43d 5ffc c03d
00000010: b5b8 b23d 21be 9c3d 1281 193e a78b 68bd
00000020: 1aa1 363e 4612 8abd 235d 203e 0ad2 fc3d
00000030: fb8c 31be 89fa 883c 160a 22bd 981e ad3d
00000040: 369d b4bd 3429 c23d 5065 313e dfb1 3f3e
00000050: 57da 20be a643 8abd a93a 413e d653 da3c
00000060: 0b48 ce3d 5c78 013f b4da 663e 2680 193e
00000070: da11 01be 9fb5 11be e333 1ebe 3b4c 7b3d
00000080: d7ed 133e 8788 053e 61ad a73d 6f36 133c
00000090: 5de2 9d3d 5ea9 3ebd 63d0 463e 8215 453c
000000a0: 87b4 913e 25c6 f83d a8f4 4d3e 80c5 a5bd
000000b0: 5787 e1bd ed2c 253d 0dd6 a83d ba3a c23c
000000c0: dc1a 53bb 4f5e 4c3d 196a 25bd f5fa ecbd
000000d0: 5781 5e3e 96df 32bc c873 623c b9cc fe3d
000000e0: 1e3b a03d 6bf8 853d 8f7f a8bd 2710 a9be
000000f0: 813b 7abf d3d5 233e d162 743d 8014 38be
00000100: 92f6 b6bb ce86 f8bc 1c95 7abd 0845 28bd
00000110: 3a92 083e 4f42 023e 3f88 72bd 2e99 b4bb
00000120: f77e f93c 44c5 3b3d 5b99 b2bd 01c1 ae3b
00000130: b75f e23d 96e3 29bc a6a0 9d3c abc2 18bc
00000140: 0cbf 003d 1b66 05bd 3ca9 093d 9e04 0f3e
00000150: 8f3f 73bc f0de 4bbd 9352 8ebc 6cc3 113d
00000160: e9c8 8abc d242 a7bd 83d6 7cbe ce80 463e
00000170: 56a6 24be 1b5e a93d 0880 363d 75a6 90bc
00000180: 9b0a c03d f995 093e f548 22bd 481a 2cbe
00000190: 4d5b 693d bdcf d23c 0423 2e3e c99d a93d
000001a0: 1108 c0bd a857 d7bd 1db1 fd3c 4331 583d
000001b0: d172 4e3d 734b 22bc f673 733d e306 60bc
000001c0: 824b a1bd 616e 6c3b 16a0 053e 371d 82bc
000001d0: 6645 d3bc f0f7 b73d 20af 883d 7caa 773d
000001e0: 6014 753c 9921 6b3d 0f81 d13c 35db 003d
000001f0: cf69 d1bc 928c c3bb 9bb2 093e 2c88 9f3b
00000200: 5f0d 613e 41fc e8bb da4d 71bc e7e8 7d3d
00000210: 6e79 333d 054e 38be d5e9 a83d 7f5c ba3d
00000220: 28cd c43d 669b f53b 4b89 87bd 711e 32be
00000230: d9d6 a03c e76c 033e fd69 453d 928c 193d
00000240: 47ad 893d a96e 473d a3e7 603d f591 423c
00000250: e107 763d 2200 293d 5e96 e33d 1c83 53bd
00000260: 9b2b 2cbc dc69 38bd a778 233d 4f60 2fbc
00000270: 32aa 17bd 194f 5e3d c58f 0cbe cc09 7e3d
00000280: 034c 1ebd ba4b 57bd de4e 893c 0301 e1bc
00000290: 3fbe 133d 9828 883d e3c4 93bd 5610 a43c
000002a0: 580f ce3d b3de e13d 93eb 1ebc 4e6b a8bd
000002b0: 5251 71bb 61f1 ea3b a33f 8bbd d69f b33d
000002c0: 800a 1f3d 77d7 66bd 60be ab3b 2c68 a53d
000002d0: 3383 053e 2003 50bd 6676 873d 2c26 9bbc
000002e0: ac97 a23b 3c54 a739 954f 23bd 041a 28be
000002f0: 401a acba d48b cebd e4b3 433e 33c1 823d
00000300: 1dc9 433d ee28 ea3d 009f 923c a385 0c3e
00000310: 2951 1c3d 20ae 383c e91d 763d 80fc 92ba
00000320: 8b7d 143e f3e0 193d 45b8 803b daf7 f03d
00000330: f833 0dbd a7d7 d13d dbfd 2f3e 88fb 92bc
00000340: 5fa5 823d e630 95bd cc09 d33c 6942 423d
00000350: a091 a23d 035d a9be f76d bf3c 3263 2d3d
00000360: b905 59bc 1f39 3c3e 2d4d 15bd 2ddf 713e
00000370: 886a 08be 4a2a 833b fe94 83bc 6072 edbc
00000380: 6474 bdbc c3bf 9e3d 9a4d 8cbd 4210 203d
00000390: c74e febd fc4b 073d 9f52 16bd 35b1 f33c
000003a0: cea3 2fbd bf0b 55bd 8b6b 213e fba1 0c3d
000003b0: e22a 4bbd 9937 87be d36f 833b ee21 feba
000003c0: 5374 90bd 24ec 7b3d 4c45 1cbe 135a 02bd
000003d0: 8af8 c4bd 7f81 e03d e57d 653d f15a 9d3d
000003e0: a0b9 93be d5e5 4dbe b2a2 d5bd c3e0 a43d
000003f0: c138 443d 076d 813d 0089 323d 2d25 67bd
-0.15594734 0.07748926 0.09607531 0.09423136 0.08726636 0.07653452 0.14990643 -0.056773808
0.17834893 -0.06741767 0.15660529 0.12344749 -0.17338936 0.016721027 -0.0395604 0.08453101
-0.08819048 0.09480515 0.17323804 0.18720196 -0.1570829 -0.06751184 0.18870033 0.026651304
0.10072335 0.5057428 0.22544366 0.14990291 -0.12604466 -0.14229439 -0.1544948 0.061351996
0.14446197 0.13040362 0.08187366 0.008985146 0.07709191 -0.04654824 0.1941543 0.012029054
0.28458044 0.12147168 0.2011286 -0.08094311 -0.11012142 0.040326048 0.08243952 0.023709644
-0.0032212054 0.049894627 -0.040384386 -0.11571304 0.21729027 -0.010917565 0.01382155 0.124413915
0.07823776 0.065415226 -0.08227455 -0.33020136 -0.97747046 0.15999536 0.05966455 -0.1797657
-0.0055835927 -0.030337717 -0.061177358 -0.04108146 0.13337031 0.12720607 -0.059211966 -0.0055114245
0.03045605 0.045842424 -0.087206565 0.0053330665 0.110534124 -0.010369202 0.019241642 -0.009323756
0.031432196 -0.03256808 0.03360866 0.13966605 -0.0148466965 -0.049773157 -0.017373359 0.03558676
-0.016941505 -0.08167042 -0.24691205 0.19385073 -0.16079077 0.08269902 0.044555694 -0.017657498
0.09377023 0.13436116 -0.03962036 -0.168069 0.056971837 0.025733823 0.17005545 0.08282048
-0.093765385 -0.10514766 0.030968243 0.052781355 0.050402466 -0.009905684 0.05943676 -0.013673517
-0.0787573 0.0036076533 0.13049349 -0.015883071 -0.025789928 0.08982837 0.066740274 0.06046532
0.014958471 0.057405088 0.025574235 0.031459052 -0.025563149 -0.005967685 0.13447039 0.004868528
0.21977757 -0.007110149 -0.014728034 0.06198969 0.043816976 -0.17998512 0.08247725 0.090996735
0.09609443 0.0074953316 -0.066179834 -0.17394425 0.019633697 0.12834512 0.04819678 0.037487574
0.06722503 0.048689518 0.054908406 0.011875619 0.060066108 0.041259892 0.11112665 -0.051638708
-0.010508443 -0.04502283 0.039909985 -0.010704114 -0.037027545 0.054274652 -0.13726719 0.06202106
-0.03864671 -0.052562453 0.01676124 -0.027466303 0.036070105 0.06648368 -0.072152875 0.02002732
0.1006152 0.11028805 -0.00969972 -0.08223592 -0.0036822152 0.007169888 -0.06799247 0.08770721
0.038828373 -0.056357827 0.0052412003 0.0807651 0.1303833 -0.05078423 0.066143796 -0.0189391
0.0049619284 0.00031915482 -0.039870817 -0.16416174 -0.0013130382 -0.10085264 0.19111592 0.06384506
0.04779922 0.11433588 0.017898083 0.13722853 0.038163338 0.011271983 0.06008712 -0.0011214167
0.14501016 0.037568044 0.0039282166 0.11766024 -0.03447339 0.102462105 0.17186682 -0.017942205
0.06379198 -0.07284717 0.025761507 0.047426615 0.07937932 -0.33078775 0.023367865 0.04233093
-0.013245993 0.18381165 -0.036450554 0.23620291 -0.13321888 0.004002844 -0.016062256 -0.028985202
-0.023126788 0.077514194 -0.06850739 0.039078005 -0.12417369 0.03303145 -0.036699887 0.029747585
-0.042880826 -0.052013155 0.1576368 0.034334164 -0.049601443 -0.26409605 0.004011133 -0.0019388774
-0.07053437 0.061504498 -0.1526081 -0.031824183 -0.096177176 0.109621994 0.056028266 0.07683361
-0.28852558 -0.20107205 -0.10431422 0.080506824 0.047905687 0.063196234 0.043587685 -0.056431938

linear.bias f4 [15]
00000000: 9a90 4440 5dd2 b73f 6575 ad3f 1c8a 393f
00000010: 707c 1b3f 45c6 8c3d cb84 793d cc23 ebbd
00000020: e3f4 26bf ff2e 5cbf c1f5 24be 56d8 7abf
00000030: cf68 b1bf 637d cabf b57b bbbf
3.0713258 1.4361073 1.3551451 0.72476363 0.6073675 0.068737544 0.060917657 -0.11481437
-0.6521742 -0.8600921 -0.16109373 -0.9798635 -1.386011 -1.5819515 -1.4647127
