Assignment 2/model_fold_3.pth (torch, 25398 bytes, 2 tensors)

linear.weight f4 [15, 396]
0	0xbdd44d62	-0.10366322
1	0x3dbfc565	0.09363822
2	0x3d6c3d31	0.057675544
3	0x3d9f7020	0.07785058
4	0x3db208a6	0.08693056
5	0x3da1d231	0.07901419
6	0x3e3ea380	0.18617058
7	0xbdda9110	-0.106722
8	0x3e046cbf	0.12932108
9	0xbe0a126b	-0.13483588
10	0x3e2dd742	0.16976646
11	0x3d74a096	0.05972346
12	0xbe3045f4	-0.17214185
13	0x3d3bfeb3	0.045897197
14	0xbcd9a8da	-0.026569773
15	0x3d131a2b	0.035913628
16	0xbe9a1110	-0.30091143
17	0x3df792db	0.12088557
18	0x3e368382	0.17823604
19	0x3e6510aa	0.22369638
20	0xbe104fd8	-0.14092958
21	0xbd09864b	-0.033575337
22	0x3e38b540	0.18037891
23	0xbc065880	-0.008199811
24	0x3dcad74b	0.09904345
25	0x3ef6d8ad	0.48212186
26	0x3e405911	0.18783976
27	0x3e3e94d6	0.18611464
28	0xbdc62a07	-0.09675985
29	0xbe1777a8	-0.14791739
30	0xbe2cb3d5	-0.16865475
31	0xbc92303b	-0.017845264
32	0x3e0be501	0.13661577
33	0x3deb480f	0.114883535
34	0x3d8d5cb3	0.069024466
35	0x3d36edba	0.044660307
36	0x3db60a42	0.08888675
37	0xbcea16fd	-0.028575415
38	0x3e65329d	0.22382589
39	0x3c6cd72e	0.0144556
40	0x3e8e6b23	0.27816114
41	0x3e1c4677	0.15261255
42	0x3e3cccc5	0.18437488
43	0xbd6d7a09	-0.05797771
44	0xbe212f33	-0.15740661
45	0x3d6c3c7b	0.057674866
46	0x3d826225	0.06366376
47	0x3c05e430	0.00817208
48	0x3d3c2b29	0.0459396
49	0x3daa4477	0.0831384
50	0xbd3cb895	-0.04607447
51	0xbd69f147	-0.057114866
52	0x3e4b1199	0.19830932
53	0xbb37e2c7	-0.0028058754
54	0x3cd86403	0.026414877
55	0x3e243449	0.1603557
56	0x3da7c704	0.08192256
57	0x3daf800a	0.085693434
58	0x3ca59456	0.020212334
59	0xbeb3b313	-0.3509756
60	0xbf746106	-0.95460546
61	0x3e15cb64	0.14628369
62	0x3c07e29d	0.008293775
63	0xbe408012	-0.18798855
64	0x3d1d1ca3	0.03835739
65	0xbd929e3d	-0.07159088
66	0xbc6052bf	-0.013691603
67	0x3b714a52	0.003681798
68	0x3e0c20e0	0.13684416
69	0x3e0404ee	0.12892506
70	0xbd1c40e7	-0.038147833
71	0x3c881952	0.016613636
72	0x3d04fe08	0.032468826
73	0x3c60904e	0.01370628
74	0xbdb9c0aa	-0.09069951
75	0xbd079440	-0.033100367
76	0x3da0c3c8	0.07849842
77	0x3c91e4a5	0.017809222
78	0x3d0ec4ca	0.03485564
79	0x3bf6e3c9	0.0075344783
80	0x3d8028bc	0.062577695
81	0xbd2f5684	-0.042807117
82	0xbd16834e	-0.036746316
83	0x3dc42625	0.09577588
84	0x3c7c504e	0.0154000055
85	0xbc298430	-0.010346457
86	0xbd96893e	-0.073503956
87	0x3d8c01b9	0.06836266
88	0x3d7ead51	0.062177006
89	0xbd8fe076	-0.070252344
90	0xbe84b0c3	-0.25916108
91	0x3e704014	0.23461944
92	0xbe375a4b	-0.17905538
93	0x3db46090	0.0880748
94	0x3cf7e675	0.030261258
95	0xbd29a4d3	-0.041416954
96	0x3db83ad2	0.08995594
97	0x3c6c067b	0.014405842
98	0xbb876330	-0.004131697
99	0xbd886619	-0.066600986
100	0x3d4ff555	0.050771076
101	0x3c921fe7	0.017837478
102	0x3d0181d4	0.031617954
103	0x3e066f59	0.13128413
104	0xbdc719d5	-0.09721724
105	0xbd8d8738	-0.069105566
106	0x3dbf711b	0.09347745
107	0x3dd8e3c4	0.10590318
108	0x3d6a86e3	0.057257544
109	0x3c6780cb	0.014129828
110	0x3da59e45	0.08086828
111	0xbcd444de	-0.025911745
112	0xbda1a7ec	-0.07893357
113	0xbd1c3927	-0.038140442
114	0x3d92d693	0.07169833
115	0xbd85f6aa	-0.06541188
116	0xbcf3d6c1	-0.029765489
117	0x3d3cf8d8	0.046135753
118	0x3d2ab304	0.04167463
119	0x3dd5edfb	0.10445782
120	0xbd60e5cc	-0.05490665
121	0x3dbf0f82	0.0932913
122	0x3a0ffaef	0.0005492409
123	0xbd63fd08	-0.05566123
124	0x3cf05228	0.02933605
125	0x3d1e2465	0.038608927
126	0x3d9d90a9	0.07693607
127	0xbdc308cf	-0.095231645
128	0x3e7112dc	0.2354235
129	0xbdbefc66	-0.09325485
130	0x3d20ae26	0.03922858
131	0x3ba90812	0.0051584328
132	0x3dbdd17c	0.092684716
133	0xbdbb96da	-0.09159632
134	0x3dcd192f	0.10014569
135	0x3de21824	0.11039761
136	0x3db16cba	0.08663316
137	0x3d591098	0.05299434
138	0xbd43bbef	-0.04778665
139	0xbe134ce4	-0.143848
140	0xbbe74cd2	-0.0070587182
141	0x3de5a023	0.11212184
142	0xbd45dd4c	-0.04830675
143	0xbbc73814	-0.006079683
144	0x3dbccac9	0.09218366
145	0x3e0671cf	0.13129352
146	0x3d16ec1a	0.036846258
147	0xbd05f775	-0.032706697
148	0x3d3d945b	0.04628406
149	0x3c90fb7c	0.017698042
150	0x3dcd1de3	0.10015466
151	0xbcf2d330	-0.029641718
152	0x3c3491f0	0.011021122
153	0xbd0caece	-0.034346394
154	0x3d2ef061	0.042709712
155	0xbdfa9d04	-0.122369796
156	0x3cd9fa33	0.026608562
157	0x3a5c5ba0	0.0008405987
158	0xbde7e85a	-0.113236144
159	0xbd3a4c8f	-0.04548317
160	0xbd599339	-0.053118918
161	0xbcf480e6	-0.02984662
162	0xbced2d41	-0.028952243
163	0xbd7ec09c	-0.062195405
164	0xbc6bb216	-0.014385721
165	0x3d789cfa	0.06069658
166	0xbd93798f	-0.0720092
167	0x3c06d41e	0.008229284
168	0x3d7c4ce4	0.061596766
169	0x3d91e33f	0.07123422
170	0x3d883dac	0.06652388
171	0xbd93083a	-0.071793035
172	0x3d9d6a4f	0.076862924
173	0xbcaf8a59	-0.021428274
174	0xbcec2ecd	-0.02883091
175	0x3dc5c1c7	0.09656101
176	0x3da3699c	0.07979128
177	0xbd696613	-0.05698211
178	0xbd9759d5	-0.07390181
179	0x3df045be	0.11732052
180	0x3d43e03d	0.047821272
181	0x3d9c0147	0.07617431
182	0xbae642cc	-0.0017567514
183	0x3b13302a	0.0022459128
184	0xbddcc826	-0.10780363
185	0x3b49c88a	0.0030789697
186	0x3b902a65	0.004399585
187	0xbddb9f98	-0.107237995
188	0x3b044865	0.0020184752
189	0xbe08ef97	-0.13372646
190	0x3e186dab	0.14885585
191	0x3e25c927	0.16190015
192	0x3d94722d	0.0724834
193	0x3e445bd4	0.19175655
194	0x3df1989a	0.117966846
195	0x3e064706	0.13113031
196	0xbcd7ae52	-0.02632824
197	0x3d903f10	0.07043278
198	0x3e0a1f3c	0.13488477
199	0xbd392fa8	-0.045211464
200	0x3da6d0f6	0.08145325
201	0x3d37ad08	0.04484275
202	0xbca860b7	-0.02055393
203	0x3e1936d3	0.1496232
204	0xbc6b8fab	-0.014377515
205	0x3d7587e5	0.059944052
206	0x3e410b0f	0.18851875
207	0xbdd00551	-0.10157264
208	0x3c9e6623	0.019335812
209	0xbdc4db71	-0.096121676
210	0x3d875c23	0.066093706
211	0x3d046b8b	0.032329123
212	0x3d5b3a1e	0.05352222
213	0xbea543b3	-0.32278213
214	0xbd455c3e	-0.048183672
215	0x3d8415f1	0.064494975
216	0xbdf2d57e	-0.11857127
217	0x3e1b5f7a	0.1517314
218	0x3ccc1f60	0.024917305
219	0x3e837578	0.2567556
220	0xbe104ea2	-0.14092496
221	0xbd9c94f1	-0.07645596
222	0xbd4161c2	-0.04721237
223	0xbb3cc51a	-0.0028804005
224	0xbd0ee5be	-0.034887068
225	0x3d81feb9	0.063474126
226	0xbd55f1f8	-0.052232713
227	0x3d69e9c2	0.057107694
228	0xbddbb24d	-0.107273676
229	0x3d8d4cd1	0.06899417
230	0xbca38587	-0.019961132
231	0x3d124edb	0.035719734
232	0xbd064793	-0.032783102
233	0x3c36fd90	0.011168852
234	0x3e417465	0.18892057
235	0x3d572e85	0.0525346
236	0x3a907429	0.0011020947
237	0xbe6c03ea	-0.23048368
238	0xbbbfc3bf	-0.005852192
239	0xbb786222	-0.0037900289
240	0xbe06970a	-0.13143554
241	0xbbfa47b7	-0.0076379436
242	0xbe37a4ad	-0.17933913
243	0x3ce34a84	0.027745493
244	0xbde26155	-0.11053721
245	0x3dccad80	0.0999403
246	0x3b4ff609	0.0031732342
247	0x3d709a49	0.058740888
248	0xbe023c77	-0.12718378
249	0xbe37ba1c	-0.17942089
250	0xbdae26df	-0.08503508
251	0x3e0cf573	0.13765506
252	0x3d0d32cf	0.034472283
253	0x3d4699f8	0.04848668
254	0x3c60fec4	0.013732616
255	0xbd5c67f1	-0.053810064

linear.bias f4 [15]
0	0x40405cee	3.005672
1	0x3fabb397	1.3414181
2	0x3fa0f896	1.2575862
3	0x3f4cc47f	0.7998733
4	0x3f1aa30a	0.6040503
5	0x3e5404a0	0.2070489
6	0x3d4fd443	0.050739538
7	0xbe084035	-0.13305743
8	0xbf1f1849	-0.6214643
9	0xbf5f2119	-0.8715988
10	0xbe63aec7	-0.22234641
11	0xbf824df1	-1.0180036
12	0xbfbec74c	-1.490457
13	0xbfc3cf2f	-1.5297602
14	0xbfc06174	-1.502974
