Assignment 2/model_fold_3.pth (torch, 25398 bytes, 2 tensors)

linear.weight f4 [15, 396]
000000 b4 b4 32 be 22 19 10 3e db 1f 7d 3d f3 0b fb 3c
       -0.17451745 0.14072087 0.061797958 0.030645346
000010 3a 2b 41 3d f2 90 ea 3d b8 45 59 3e 24 8e dc bd
       0.047160365 0.114534274 0.21218002 -0.10769299
000020 05 5d 3a 3e 05 d3 75 bd 15 cd ea 3d 66 56 a0 3d
       0.18199547 -0.060015697 0.114648975 0.07828979
000030 5a 87 3d be ac cf eb 3c 82 e3 a1 3c 94 cf b1 3d
       -0.18508664 0.02878555 0.019761804 0.086821705
000040 a2 5e d9 bd cc 9c 1d 3e 61 a4 47 3e 1d 50 94 3e
       -0.10613753 0.15391845 0.194963 0.28967372
000050 1d 79 1e be 75 4a 9c bd 93 1e 26 3e 75 46 30 bd
       -0.15475889 -0.07631389 0.162226 -0.043035943
000060 95 cc 00 3e 16 88 f9 3e 9c 1e 44 3e f7 62 25 3e
       0.12578042 0.48736638 0.19152302 0.16151033
000070 d7 40 21 be 6f 49 ac be c4 41 4c be b6 ef 66 3d
       -0.1574739 -0.33649775 -0.19946963 0.05638095
000080 8f 62 9c 3d 85 5b d7 3d b2 2d b7 3d 33 0d 62 3d
       0.07635986 0.10515503 0.089442626 0.05518837
000090 b5 4e af 3d 57 45 66 bd b6 ed 5c 3e eb 97 52 3d
       0.08559934 -0.05621847 0.21575055 0.05141441
0000a0 5c e8 a0 3e 99 60 e2 3d 2a e8 6d 3e b5 5e cf bd
       0.31427276 0.11053581 0.23233095 -0.10125486
0000b0 0e 15 89 bd fe c9 cb 3d 9b 0b 9c 3d 04 b4 5a 3d
       -0.06693469 0.09950636 0.07619401 0.053394333
0000c0 50 a3 dc 3c 10 a2 ce 3d ab 01 ac bc f2 b2 99 bd
       0.026933342 0.10089505 -0.02099689 -0.07504834
0000d0 09 0a 4c 3e 09 8c 65 bc db 45 0f 3c cc 39 03 3e
       0.19925703 -0.014010438 0.008744682 0.12815017
0000e0 20 b0 88 3d 44 87 b6 3d 5c 41 3b bd 7f 6a b1 be
       0.06674218 0.089125186 -0.04571663 -0.34651563
0000f0 f3 9b 83 bf 89 d4 e8 3d 3f 91 06 3d a9 d5 26 be
       -1.0281967 0.11368663 0.03285336 -0.16292442
000100 38 04 a2 3c 8c 4a a4 bd a5 ce 37 bd 0a c1 70 bd
       0.019777402 -0.08022031 -0.044874806 -0.058777846
000110 9e 93 b8 3d 9e 98 00 3e 1e ca b5 bc 69 89 55 3d
       0.09012531 0.12558219 -0.022191104 0.052132998
000120 30 1c c6 3c 5d cb de 3c d6 e0 20 be f8 2b 83 bc
       0.024183363 0.02719658 -0.15710768 -0.016012177
000130 d1 05 ab 3d 74 4e bc 3c 23 db 75 3d 5a dc 5e 3c
       0.08350719 0.022986628 0.06002344 0.013602341
000140 db ee 11 bd b8 e4 03 be 32 73 d0 bb 4d bd 8b 3d
       -0.03562818 -0.12880218 -0.0063613886 0.06823216
000150 c4 43 a2 3b 48 8a 61 bd b8 af 79 bd ed 2d 10 3d
       0.004951926 -0.055063516 -0.060958594 0.03520005
000160 4c 66 3f bd a7 dc 1e be 04 72 b5 be 7d 85 37 3e
       -0.046728417 -0.1551386 -0.3543855 0.17922015
000170 42 cd 29 be e4 14 26 3d da 89 06 3d a1 15 60 bd
       -0.16582206 0.040547267 0.03284631 -0.054708127
000180 2e 1d 7f 3d 65 96 87 3b f3 ef 2d bc b4 db fe bd
       0.062283687 0.0041378015 -0.01061629 -0.12444249
000190 7c e5 fc 3d ae 72 91 3d 13 f1 c5 3c 07 eb 30 3d
       0.12348458 0.071019515 0.024162805 0.04319289
0001a0 01 b2 24 be ca e0 a7 bd a3 4c af 3d 64 4c 25 3e
       -0.16083528 -0.08197172 0.08559539 0.16142422
0001b0 48 0c 8c 3d 75 97 b6 3c 1e 0c 55 3d 11 53 2e 3b
       0.0683828 0.022289017 0.05201351 0.0026599804
0001c0 5a 0d fb ba da cd 9f 3c 1c e2 b9 3d 16 fe 26 bd
       -0.0019153759 0.019507337 0.0907633 -0.04076966
0001d0 31 72 39 bc cb 82 7b 3d 54 30 c4 3c b1 77 ff 3d
       -0.011318729 0.06140403 0.023948826 0.12474001
0001e0 ac 05 1a bc f5 58 9f 3c 00 0c 52 bd 04 d4 83 bc
       -0.009400766 0.019451598 -0.051280975 -0.016092308
0001f0 07 24 35 3c fa 72 6e 3d 77 60 b8 3d f3 38 05 3d
       0.011055953 0.05821512 0.09002774 0.032525014
000200 93 d7 48 3e 08 78 dc bd 43 45 8b 3d ff 58 9b 3d
       0.19613485 -0.10765082 0.0680032 0.07585334
000210 7d 3d b9 3d 31 0c d0 bd 74 c6 60 3d 5b 67 99 3d
       0.09044931 -0.10158575 0.05487676 0.074904166
000220 9c e0 29 3d 24 10 5a 3b 69 95 04 bd ea b2 5d be
       0.04147397 0.003327378 -0.03236905 -0.21650282
000230 8f da d0 3c 89 f2 ea 3d 1b 64 7c 3d 25 54 8d 3d
       0.025494842 0.11472041 0.061618906 0.06900815
000240 82 2e b8 3d 81 d2 51 3d 5f 6f 05 3e 9f 93 91 bc
       0.08993246 0.051226143 0.13030766 -0.017770587
000250 0b e7 83 bb be c8 b5 3d a0 f5 a6 3d 6b 68 9f bd
       -0.004025345 0.08876179 0.08152318 -0.07783588
000260 9a d5 9c bb 0a 6b 92 bc 78 b0 45 3d 71 39 94 bd
       -0.0047862055 -0.017873306 0.048263997 -0.072375186
000270 13 75 1c bc 56 a0 9c 3d d4 0a 0e be 2a 29 1c bc
       -0.009549397 0.07647769 -0.13871318 -0.009531299
000280 68 9a 19 3d bc 71 69 3a f5 48 a6 3c 90 80 33 bc
       0.03750077 0.00089051924 0.02029846 -0.010955945
000290 58 c0 70 3d e6 d5 de 3d 1c 23 12 be 56 77 46 3c
       0.058777183 0.10880642 -0.14271206 0.012113413
0002a0 53 c1 0b 3e cf f3 bd 3d 36 b2 62 3d f3 c2 85 bd
       0.13647966 0.092750184 0.055345736 -0.06531324
0002b0 76 22 d5 bc bf b5 0a bd ff aa ce 3c cc fc 85 3d
       -0.026017409 -0.033864733 0.025228022 0.06542358
0002c0 91 79 0a 3e c6 d9 15 bd db 74 91 bd 2a d1 16 3d
       0.13522936 -0.036584638 -0.071023665 0.03682057
0002d0 dd 91 ce 3d 62 c8 32 bd 4a 99 26 bc 6e 61 4c bd
       0.10086415 -0.04364813 -0.010168383 -0.049897604
0002e0 4c 61 89 3b 6e ba 9c 3d 2f da a3 bd 2f 33 df bd
       0.004192507 0.07652746 -0.080005996 -0.10898434
0002f0 07 3e 8e 3b 3d f5 e0 bc c2 ff 5a 3e dc 53 aa 3d
       0.0043408903 -0.027460689 0.21386626 0.08316776
000300 a9 a4 ec 3d e1 12 a8 3d 53 0a 97 bc fb 95 24 3e
       0.11554844 0.08206726 -0.01843754 0.16072838
000310 42 5a 1a 3e cb 1b 8c 3d fc d9 dd 3d f1 a4 27 3d
       0.15073493 0.068412386 0.10832593 0.040928785
000320 7f f9 e6 3d 22 28 b4 3d cd c2 61 bb c1 6f fa 3d
       0.11278056 0.08796717 -0.0034448386 0.122283466
000330 ea aa a3 bd 3c c5 60 3d 68 8d 49 3e ba 36 51 bc
       -0.07991584 0.054875597 0.19682848 -0.0127693955
000340 ba 02 5b 3d a8 e7 20 bd 63 bc ad 3d 25 03 2b 3d
       0.053469397 -0.039283425 0.084831975 0.041751046
000350 95 ea d3 3d 07 12 c1 be 13 cd d4 bb 18 b8 75 3d
       0.10347477 -0.37709066 -0.0064941733 0.05999002
000360 db 64 18 bd a4 aa 4a 3e fb b4 b4 3c a6 99 35 3e
       -0.03720556 0.19791657 0.022058954 0.17734393
000370 8d e8 0e be 12 ed 9a bd c4 b4 10 3c 6a 3b 6f bd
       -0.13955899 -0.07564749 0.00883216 -0.05840627
000380 52 7f 88 bd 94 c8 07 3e 38 6d 9a bd 27 5b 5e 3d
       -0.066649094 0.13260108 -0.07540363 0.05428615
000390 df 19 d4 bd e6 3e 2b 3d 82 31 43 bb 0c 2d 9d 3c
       -0.10356497 0.04180803 -0.0029784148 0.01918652
0003a0 40 62 30 3d 44 42 04 bd 5b b7 4a 3e f8 d3 4c 3d
       0.04306245 -0.03228976 0.19796507 0.050006837
0003b0 b6 08 0e 3d 7e e3 8d be 6a 0b bf 3d 75 44 f0 bc
       0.034676276 -0.27712625 0.09328349 -0.029329518
0003c0 57 b2 0f be cf d9 5b 3d 45 92 72 be 26 c9 ae bb
       -0.14032875 0.053674515 -0.2368861 -0.0053340374
0003d0 66 6a bf bd a1 ed e3 3d 8d af 80 3d eb 1c 66 3d
       -0.09346466 0.111293085 0.06283484 0.056179922
0003e0 1e 0e 98 be 6c 6a 93 be 1d ce 58 be 2d 65 e9 3d
       -0.2969827 -0.2879213 -0.21172376 0.11396251
0003f0 34 fc 04 bd de 23 7f 3d 05 be 44 3d a2 9f ce ba
       -0.032467082 0.062290065 0.04803278 -0.0015764127

linear.bias f4 [15]
000000 ba 30 46 40 4d f0 b6 3f d0 45 aa 3f d7 1c 53 3f
       3.096724 1.4292084 1.3302555 0.8246588
000010 9d 79 1b 3f 11 d2 7d 3e f5 05 53 bd 02 ef 5e be
       0.6073244 0.24787165 -0.051519353 -0.21770862
000020 66 56 37 bf 7e 5f 63 bf 37 44 42 be e5 02 8f bf
       -0.7161621 -0.88817585 -0.18971334 -1.1172758
000030 bf 1a af bf eb 8a ce bf 81 c1 b3 bf
       -1.3680037 -1.6136144 -1.4043428
